{"format": "graph-model", "generatedBy": "1.15.4", "convertedBy": "TensorFlow.js Converter v3.13.0", "signature": {"inputs": {"Input-Token:0": {"name": "Input-Token:0", "dtype": "DT_FLOAT", "tensorShape": {"dim": [{"size": "-1"}, {"size": "-1"}]}}, "Input-Segment:0": {"name": "Input-Segment:0", "dtype": "DT_FLOAT", "tensorShape": {"dim": [{"size": "-1"}, {"size": "-1"}]}}}, "outputs": {"lambda_1/strided_slice:0": {"name": "MLM-Activation/truediv:0", "dtype": "DT_FLOAT", "tensorShape": {"dim": [{"size": "-1"}, {"size": "-1"}, {"size": "99"}]}}}}, "modelTopology": {"node": [{"name": "Embedding-Token_1/Reshape/shape", "op": "Const", "attr": {"dtype": {"type": "DT_INT32"}, "value": {"tensor": {"dtype": "DT_INT32", "tensorShape": {"dim": [{"size": "2"}]}}}}}, {"name": "Embedding-Token_1/Reshape_1", "op": "Const", "attr": {"value": {"tensor": {"dtype": "DT_FLOAT", "tensorShape": {"dim": [{"size": "256"}, {"size": "99"}]}}}, "dtype": {"type": "DT_FLOAT"}}}, {"name": "MLM-Norm/gamma", "op": "Const", "attr": {"value": {"tensor": {"dtype": "DT_FLOAT", "tensorShape": {"dim": [{"size": "256"}]}}}, "dtype": {"type": "DT_FLOAT"}}}, {"name": "MLM-Norm/Mean_1/reduction_indices", "op": "Const", "attr": {"dtype": {"type": "DT_INT32"}, "value": {"tensor": {"dtype": "DT_INT32", "tensorShape": {}}}}}, {"name": "MLM-Norm/add/y", "op": "Const", "attr": {"dtype": {"type": "DT_FLOAT"}, "value": {"tensor": {"dtype": "DT_FLOAT", "tensorShape": {}}}}}, {"name": "MLM-Norm/Const_3", "op": "Const", "attr": {"value": {"tensor": {"dtype": "DT_FLOAT", "tensorShape": {}}}, "dtype": {"type": "DT_FLOAT"}}}, {"name": "MLM-Norm/Const_2", "op": "Const", "attr": {"dtype": {"type": "DT_FLOAT"}, "value": {"tensor": {"dtype": "DT_FLOAT", "tensorShape": {}}}}}, {"name": "MLM-Dense/mul/x", "op": "Const", "attr": {"value": {"tensor": {"dtype": "DT_FLOAT", "tensorShape": {}}}, "dtype": {"type": "DT_FLOAT"}}}, {"name": "MLM-Dense/add_1/x", "op": "Const", "attr": {"dtype": {"type": "DT_FLOAT"}, "value": {"tensor": {"dtype": "DT_FLOAT", "tensorShape": {}}}}}, {"name": "MLM-Dense/Reshape/shape", "op": "Const", "attr": {"dtype": {"type": "DT_INT32"}, "value": {"tensor": {"dtype": "DT_INT32", "tensorShape": {"dim": [{"size": "2"}]}}}}}, {"name": "MLM-Dense/Reshape_1", "op": "Const", "attr": {"dtype": {"type": "DT_FLOAT"}, "value": {"tensor": {"dtype": "DT_FLOAT", "tensorShape": {"dim": [{"size": "256"}, {"size": "256"}]}}}}}, {"name": "Transformer-3-FeedForward-Norm/gamma", "op": "Const", "attr": {"dtype": {"type": "DT_FLOAT"}, "value": {"tensor": {"dtype": "DT_FLOAT", "tensorShape": {"dim": [{"size": "256"}]}}}}}, {"name": "Transformer-3-FeedForward/dense_24/Reshape/shape", "op": "Const", "attr": {"dtype": {"type": "DT_INT32"}, "value": {"tensor": {"dtype": "DT_INT32", "tensorShape": {"dim": [{"size": "2"}]}}}}}, {"name": "Transformer-3-FeedForward/dense_24/Reshape_1", "op": "Const", "attr": {"dtype": {"type": "DT_FLOAT"}, "value": {"tensor": {"dtype": "DT_FLOAT", "tensorShape": {"dim": [{"size": "512"}, {"size": "256"}]}}}}}, {"name": "Transformer-3-FeedForward/dense_23/mul/x", "op": "Const", "attr": {"dtype": {"type": "DT_FLOAT"}, "value": {"tensor": {"dtype": "DT_FLOAT", "tensorShape": {}}}}}, {"name": "Transformer-3-FeedForward/dense_23/add_1/x", "op": "Const", "attr": {"value": {"tensor": {"dtype": "DT_FLOAT", "tensorShape": {}}}, "dtype": {"type": "DT_FLOAT"}}}, {"name": "Transformer-3-FeedForward/dense_23/Reshape/shape", "op": "Const", "attr": {"value": {"tensor": {"dtype": "DT_INT32", "tensorShape": {"dim": [{"size": "2"}]}}}, "dtype": {"type": "DT_INT32"}}}, {"name": "Transformer-3-FeedForward/dense_23/Reshape_1", "op": "Const", "attr": {"dtype": {"type": "DT_FLOAT"}, "value": {"tensor": {"dtype": "DT_FLOAT", "tensorShape": {"dim": [{"size": "256"}, {"size": "512"}]}}}}}, {"name": "Transformer-3-MultiHeadSelfAttention-Norm/gamma", "op": "Const", "attr": {"dtype": {"type": "DT_FLOAT"}, "value": {"tensor": {"dtype": "DT_FLOAT", "tensorShape": {"dim": [{"size": "256"}]}}}}}, {"name": "Transformer-3-MultiHeadSelfAttention/dense_22/Reshape/shape", "op": "Const", "attr": {"dtype": {"type": "DT_INT32"}, "value": {"tensor": {"dtype": "DT_INT32", "tensorShape": {"dim": [{"size": "2"}]}}}}}, {"name": "Transformer-3-MultiHeadSelfAttention/dense_22/Reshape_1", "op": "Const", "attr": {"dtype": {"type": "DT_FLOAT"}, "value": {"tensor": {"dtype": "DT_FLOAT", "tensorShape": {"dim": [{"size": "256"}, {"size": "256"}]}}}}}, {"name": "Transformer-3-MultiHeadSelfAttention/Reshape_3/shape/0", "op": "Const", "attr": {"dtype": {"type": "DT_INT32"}, "value": {"tensor": {"dtype": "DT_INT32", "tensorShape": {}}}}}, {"name": "Transformer-3-MultiHeadSelfAttention/einsum_1/Reshape/shape/1", "op": "Const", "attr": {"dtype": {"type": "DT_INT32"}, "value": {"tensor": {"dtype": "DT_INT32", "tensorShape": {}}}}}, {"name": "Transformer-3-MultiHeadSelfAttention/dense_21/Reshape/shape", "op": "Const", "attr": {"dtype": {"type": "DT_INT32"}, "value": {"tensor": {"dtype": "DT_INT32", "tensorShape": {"dim": [{"size": "2"}]}}}}}, {"name": "Transformer-3-MultiHeadSelfAttention/dense_21/Reshape_1", "op": "Const", "attr": {"dtype": {"type": "DT_FLOAT"}, "value": {"tensor": {"dtype": "DT_FLOAT", "tensorShape": {"dim": [{"size": "256"}, {"size": "256"}]}}}}}, {"name": "Transformer-3-MultiHeadSelfAttention/dense_21/Reshape_2/shape/2", "op": "Const", "attr": {"dtype": {"type": "DT_INT32"}, "value": {"tensor": {"dtype": "DT_INT32", "tensorShape": {}}}}}, {"name": "Transformer-3-MultiHeadSelfAttention/dense_21/Reshape_3", "op": "Const", "attr": {"dtype": {"type": "DT_FLOAT"}, "value": {"tensor": {"dtype": "DT_FLOAT", "tensorShape": {"dim": [{"size": "1"}, {"size": "1"}, {"size": "256"}]}}}}}, {"name": "Transformer-3-MultiHeadSelfAttention/Reshape_2/shape/0", "op": "Const", "attr": {"dtype": {"type": "DT_INT32"}, "value": {"tensor": {"dtype": "DT_INT32", "tensorShape": {}}}}}, {"name": "Transformer-3-MultiHeadSelfAttention/strided_slice_2/stack", "op": "Const", "attr": {"dtype": {"type": "DT_INT32"}, "value": {"tensor": {"dtype": "DT_INT32", "tensorShape": {"dim": [{"size": "1"}]}}}}}, {"name": "Transformer-3-MultiHeadSelfAttention/strided_slice_2/stack_1", "op": "Const", "attr": {"value": {"tensor": {"dtype": "DT_INT32", "tensorShape": {"dim": [{"size": "1"}]}}}, "dtype": {"type": "DT_INT32"}}}, {"name": "Transformer-3-MultiHeadSelfAttention/strided_slice_2/stack_2", "op": "Const", "attr": {"dtype": {"type": "DT_INT32"}, "value": {"tensor": {"dtype": "DT_INT32", "tensorShape": {"dim": [{"size": "1"}]}}}}}, {"name": "Transformer-3-MultiHeadSelfAttention/Reshape_2/shape/2", "op": "Const", "attr": {"dtype": {"type": "DT_INT32"}, "value": {"tensor": {"dtype": "DT_INT32", "tensorShape": {}}}}}, {"name": "Transformer-3-MultiHeadSelfAttention/Reshape_2/shape/3", "op": "Const", "attr": {"dtype": {"type": "DT_INT32"}, "value": {"tensor": {"dtype": "DT_INT32", "tensorShape": {}}}}}, {"name": "Transformer-3-MultiHeadSelfAttention/einsum_1/transpose/perm", "op": "Const", "attr": {"dtype": {"type": "DT_INT32"}, "value": {"tensor": {"dtype": "DT_INT32", "tensorShape": {"dim": [{"size": "4"}]}}}}}, {"name": "Transformer-3-MultiHeadSelfAttention/einsum_1/strided_slice_3/stack", "op": "Const", "attr": {"value": {"tensor": {"dtype": "DT_INT32", "tensorShape": {"dim": [{"size": "1"}]}}}, "dtype": {"type": "DT_INT32"}}}, {"name": "Transformer-3-MultiHeadSelfAttention/einsum_1/strided_slice_3/stack_1", "op": "Const", "attr": {"value": {"tensor": {"dtype": "DT_INT32", "tensorShape": {"dim": [{"size": "1"}]}}}, "dtype": {"type": "DT_INT32"}}}, {"name": "Transformer-3-MultiHeadSelfAttention/einsum_1/strided_slice_3/stack_2", "op": "Const", "attr": {"value": {"tensor": {"dtype": "DT_INT32", "tensorShape": {"dim": [{"size": "1"}]}}}, "dtype": {"type": "DT_INT32"}}}, {"name": "Transformer-3-MultiHeadSelfAttention/einsum_1/Reshape_1/shape/1", "op": "Const", "attr": {"value": {"tensor": {"dtype": "DT_INT32", "tensorShape": {}}}, "dtype": {"type": "DT_INT32"}}}, {"name": "Transformer-3-MultiHeadSelfAttention/einsum_1/strided_slice_2/stack", "op": "Const", "attr": {"value": {"tensor": {"dtype": "DT_INT32", "tensorShape": {"dim": [{"size": "1"}]}}}, "dtype": {"type": "DT_INT32"}}}, {"name": "Transformer-3-MultiHeadSelfAttention/einsum_1/strided_slice_2/stack_1", "op": "Const", "attr": {"value": {"tensor": {"dtype": "DT_INT32", "tensorShape": {"dim": [{"size": "1"}]}}}, "dtype": {"type": "DT_INT32"}}}, {"name": "Transformer-3-MultiHeadSelfAttention/einsum_1/strided_slice_2/stack_2", "op": "Const", "attr": {"dtype": {"type": "DT_INT32"}, "value": {"tensor": {"dtype": "DT_INT32", "tensorShape": {"dim": [{"size": "1"}]}}}}}, {"name": "Transformer-3-MultiHeadSelfAttention/einsum_1/Reshape_1/shape/3", "op": "Const", "attr": {"value": {"tensor": {"dtype": "DT_INT32", "tensorShape": {}}}, "dtype": {"type": "DT_INT32"}}}, {"name": "Transformer-3-MultiHeadSelfAttention/einsum_1/strided_slice/stack", "op": "Const", "attr": {"dtype": {"type": "DT_INT32"}, "value": {"tensor": {"dtype": "DT_INT32", "tensorShape": {"dim": [{"size": "1"}]}}}}}, {"name": "Transformer-3-MultiHeadSelfAttention/einsum_1/strided_slice/stack_1", "op": "Const", "attr": {"dtype": {"type": "DT_INT32"}, "value": {"tensor": {"dtype": "DT_INT32", "tensorShape": {"dim": [{"size": "1"}]}}}}}, {"name": "Transformer-3-MultiHeadSelfAttention/einsum_1/strided_slice/stack_2", "op": "Const", "attr": {"dtype": {"type": "DT_INT32"}, "value": {"tensor": {"dtype": "DT_INT32", "tensorShape": {"dim": [{"size": "1"}]}}}}}, {"name": "Transformer-3-MultiHeadSelfAttention/einsum_1/Reshape_2/shape/1", "op": "Const", "attr": {"value": {"tensor": {"dtype": "DT_INT32", "tensorShape": {}}}, "dtype": {"type": "DT_INT32"}}}, {"name": "Transformer-3-MultiHeadSelfAttention/einsum/Reshape/shape/1", "op": "Const", "attr": {"dtype": {"type": "DT_INT32"}, "value": {"tensor": {"dtype": "DT_INT32", "tensorShape": {}}}}}, {"name": "Transformer-3-MultiHeadSelfAttention/einsum/Reshape/shape/3", "op": "Const", "attr": {"value": {"tensor": {"dtype": "DT_INT32", "tensorShape": {}}}, "dtype": {"type": "DT_INT32"}}}, {"name": "Transformer-3-MultiHeadSelfAttention/einsum/strided_slice_2/stack", "op": "Const", "attr": {"value": {"tensor": {"dtype": "DT_INT32", "tensorShape": {"dim": [{"size": "1"}]}}}, "dtype": {"type": "DT_INT32"}}}, {"name": "Transformer-3-MultiHeadSelfAttention/einsum/strided_slice_2/stack_1", "op": "Const", "attr": {"dtype": {"type": "DT_INT32"}, "value": {"tensor": {"dtype": "DT_INT32", "tensorShape": {"dim": [{"size": "1"}]}}}}}, {"name": "Transformer-3-MultiHeadSelfAttention/einsum/strided_slice_2/stack_2", "op": "Const", "attr": {"value": {"tensor": {"dtype": "DT_INT32", "tensorShape": {"dim": [{"size": "1"}]}}}, "dtype": {"type": "DT_INT32"}}}, {"name": "Transformer-3-MultiHeadSelfAttention/einsum/Reshape_1/shape/1", "op": "Const", "attr": {"value": {"tensor": {"dtype": "DT_INT32", "tensorShape": {}}}, "dtype": {"type": "DT_INT32"}}}, {"name": "Transformer-3-MultiHeadSelfAttention/einsum/Reshape_1/shape/2", "op": "Const", "attr": {"dtype": {"type": "DT_INT32"}, "value": {"tensor": {"dtype": "DT_INT32", "tensorShape": {}}}}}, {"name": "Transformer-3-MultiHeadSelfAttention/einsum/strided_slice/stack", "op": "Const", "attr": {"value": {"tensor": {"dtype": "DT_INT32", "tensorShape": {"dim": [{"size": "1"}]}}}, "dtype": {"type": "DT_INT32"}}}, {"name": "Transformer-3-MultiHeadSelfAttention/einsum/strided_slice/stack_1", "op": "Const", "attr": {"value": {"tensor": {"dtype": "DT_INT32", "tensorShape": {"dim": [{"size": "1"}]}}}, "dtype": {"type": "DT_INT32"}}}, {"name": "Transformer-3-MultiHeadSelfAttention/einsum/strided_slice/stack_2", "op": "Const", "attr": {"dtype": {"type": "DT_INT32"}, "value": {"tensor": {"dtype": "DT_INT32", "tensorShape": {"dim": [{"size": "1"}]}}}}}, {"name": "Transformer-3-MultiHeadSelfAttention/einsum/Reshape_2/shape/1", "op": "Const", "attr": {"value": {"tensor": {"dtype": "DT_INT32", "tensorShape": {}}}, "dtype": {"type": "DT_INT32"}}}, {"name": "Transformer-3-MultiHeadSelfAttention/dense_19/Reshape/shape", "op": "Const", "attr": {"value": {"tensor": {"dtype": "DT_INT32", "tensorShape": {"dim": [{"size": "2"}]}}}, "dtype": {"type": "DT_INT32"}}}, {"name": "Transformer-3-MultiHeadSelfAttention/dense_19/Reshape_1", "op": "Const", "attr": {"value": {"tensor": {"dtype": "DT_FLOAT", "tensorShape": {"dim": [{"size": "256"}, {"size": "256"}]}}}, "dtype": {"type": "DT_FLOAT"}}}, {"name": "Transformer-3-MultiHeadSelfAttention/dense_19/Reshape_2/shape/2", "op": "Const", "attr": {"dtype": {"type": "DT_INT32"}, "value": {"tensor": {"dtype": "DT_INT32", "tensorShape": {}}}}}, {"name": "Transformer-3-MultiHeadSelfAttention/dense_19/Reshape_3", "op": "Const", "attr": {"dtype": {"type": "DT_FLOAT"}, "value": {"tensor": {"dtype": "DT_FLOAT", "tensorShape": {"dim": [{"size": "1"}, {"size": "1"}, {"size": "256"}]}}}}}, {"name": "Transformer-3-MultiHeadSelfAttention/Reshape/shape/0", "op": "Const", "attr": {"value": {"tensor": {"dtype": "DT_INT32", "tensorShape": {}}}, "dtype": {"type": "DT_INT32"}}}, {"name": "Transformer-3-MultiHeadSelfAttention/strided_slice/stack", "op": "Const", "attr": {"value": {"tensor": {"dtype": "DT_INT32", "tensorShape": {"dim": [{"size": "1"}]}}}, "dtype": {"type": "DT_INT32"}}}, {"name": "Transformer-3-MultiHeadSelfAttention/strided_slice/stack_1", "op": "Const", "attr": {"dtype": {"type": "DT_INT32"}, "value": {"tensor": {"dtype": "DT_INT32", "tensorShape": {"dim": [{"size": "1"}]}}}}}, {"name": "Transformer-3-MultiHeadSelfAttention/strided_slice/stack_2", "op": "Const", "attr": {"dtype": {"type": "DT_INT32"}, "value": {"tensor": {"dtype": "DT_INT32", "tensorShape": {"dim": [{"size": "1"}]}}}}}, {"name": "Transformer-3-MultiHeadSelfAttention/Reshape/shape/2", "op": "Const", "attr": {"value": {"tensor": {"dtype": "DT_INT32", "tensorShape": {}}}, "dtype": {"type": "DT_INT32"}}}, {"name": "Transformer-3-MultiHeadSelfAttention/Reshape/shape/3", "op": "Const", "attr": {"dtype": {"type": "DT_INT32"}, "value": {"tensor": {"dtype": "DT_INT32", "tensorShape": {}}}}}, {"name": "Transformer-3-MultiHeadSelfAttention/einsum/transpose/perm", "op": "Const", "attr": {"value": {"tensor": {"dtype": "DT_INT32", "tensorShape": {"dim": [{"size": "4"}]}}}, "dtype": {"type": "DT_INT32"}}}, {"name": "Transformer-3-MultiHeadSelfAttention/einsum/strided_slice_1/stack", "op": "Const", "attr": {"value": {"tensor": {"dtype": "DT_INT32", "tensorShape": {"dim": [{"size": "1"}]}}}, "dtype": {"type": "DT_INT32"}}}, {"name": "Transformer-3-MultiHeadSelfAttention/einsum/strided_slice_1/stack_1", "op": "Const", "attr": {"value": {"tensor": {"dtype": "DT_INT32", "tensorShape": {"dim": [{"size": "1"}]}}}, "dtype": {"type": "DT_INT32"}}}, {"name": "Transformer-3-MultiHeadSelfAttention/einsum/strided_slice_1/stack_2", "op": "Const", "attr": {"value": {"tensor": {"dtype": "DT_INT32", "tensorShape": {"dim": [{"size": "1"}]}}}, "dtype": {"type": "DT_INT32"}}}, {"name": "Transformer-3-MultiHeadSelfAttention/dense_20/Reshape/shape", "op": "Const", "attr": {"value": {"tensor": {"dtype": "DT_INT32", "tensorShape": {"dim": [{"size": "2"}]}}}, "dtype": {"type": "DT_INT32"}}}, {"name": "Transformer-3-MultiHeadSelfAttention/dense_20/Reshape_1", "op": "Const", "attr": {"value": {"tensor": {"dtype": "DT_FLOAT", "tensorShape": {"dim": [{"size": "256"}, {"size": "256"}]}}}, "dtype": {"type": "DT_FLOAT"}}}, {"name": "Transformer-3-MultiHeadSelfAttention/dense_20/Reshape_2/shape/2", "op": "Const", "attr": {"dtype": {"type": "DT_INT32"}, "value": {"tensor": {"dtype": "DT_INT32", "tensorShape": {}}}}}, {"name": "Transformer-3-MultiHeadSelfAttention/dense_20/Reshape_3", "op": "Const", "attr": {"dtype": {"type": "DT_FLOAT"}, "value": {"tensor": {"dtype": "DT_FLOAT", "tensorShape": {"dim": [{"size": "1"}, {"size": "1"}, {"size": "256"}]}}}}}, {"name": "Transformer-3-MultiHeadSelfAttention/Reshape_1/shape/0", "op": "Const", "attr": {"value": {"tensor": {"dtype": "DT_INT32", "tensorShape": {}}}, "dtype": {"type": "DT_INT32"}}}, {"name": "Transformer-2-FeedForward-Norm/gamma", "op": "Const", "attr": {"value": {"tensor": {"dtype": "DT_FLOAT", "tensorShape": {"dim": [{"size": "256"}]}}}, "dtype": {"type": "DT_FLOAT"}}}, {"name": "Transformer-2-FeedForward/dense_18/Reshape/shape", "op": "Const", "attr": {"value": {"tensor": {"dtype": "DT_INT32", "tensorShape": {"dim": [{"size": "2"}]}}}, "dtype": {"type": "DT_INT32"}}}, {"name": "Transformer-2-FeedForward/dense_18/Reshape_1", "op": "Const", "attr": {"value": {"tensor": {"dtype": "DT_FLOAT", "tensorShape": {"dim": [{"size": "512"}, {"size": "256"}]}}}, "dtype": {"type": "DT_FLOAT"}}}, {"name": "Transformer-2-FeedForward/dense_17/mul/x", "op": "Const", "attr": {"value": {"tensor": {"dtype": "DT_FLOAT", "tensorShape": {}}}, "dtype": {"type": "DT_FLOAT"}}}, {"name": "Transformer-2-FeedForward/dense_17/add_1/x", "op": "Const", "attr": {"value": {"tensor": {"dtype": "DT_FLOAT", "tensorShape": {}}}, "dtype": {"type": "DT_FLOAT"}}}, {"name": "Transformer-2-FeedForward/dense_17/Reshape/shape", "op": "Const", "attr": {"dtype": {"type": "DT_INT32"}, "value": {"tensor": {"dtype": "DT_INT32", "tensorShape": {"dim": [{"size": "2"}]}}}}}, {"name": "Transformer-2-FeedForward/dense_17/Reshape_1", "op": "Const", "attr": {"value": {"tensor": {"dtype": "DT_FLOAT", "tensorShape": {"dim": [{"size": "256"}, {"size": "512"}]}}}, "dtype": {"type": "DT_FLOAT"}}}, {"name": "Transformer-2-MultiHeadSelfAttention-Norm/gamma", "op": "Const", "attr": {"value": {"tensor": {"dtype": "DT_FLOAT", "tensorShape": {"dim": [{"size": "256"}]}}}, "dtype": {"type": "DT_FLOAT"}}}, {"name": "Transformer-2-MultiHeadSelfAttention/dense_16/Reshape/shape", "op": "Const", "attr": {"dtype": {"type": "DT_INT32"}, "value": {"tensor": {"dtype": "DT_INT32", "tensorShape": {"dim": [{"size": "2"}]}}}}}, {"name": "Transformer-2-MultiHeadSelfAttention/dense_16/Reshape_1", "op": "Const", "attr": {"value": {"tensor": {"dtype": "DT_FLOAT", "tensorShape": {"dim": [{"size": "256"}, {"size": "256"}]}}}, "dtype": {"type": "DT_FLOAT"}}}, {"name": "Transformer-2-MultiHeadSelfAttention/Reshape_3/shape/0", "op": "Const", "attr": {"value": {"tensor": {"dtype": "DT_INT32", "tensorShape": {}}}, "dtype": {"type": "DT_INT32"}}}, {"name": "Transformer-2-MultiHeadSelfAttention/einsum_1/Reshape/shape/1", "op": "Const", "attr": {"value": {"tensor": {"dtype": "DT_INT32", "tensorShape": {}}}, "dtype": {"type": "DT_INT32"}}}, {"name": "Transformer-2-MultiHeadSelfAttention/dense_15/Reshape/shape", "op": "Const", "attr": {"value": {"tensor": {"dtype": "DT_INT32", "tensorShape": {"dim": [{"size": "2"}]}}}, "dtype": {"type": "DT_INT32"}}}, {"name": "Transformer-2-MultiHeadSelfAttention/dense_15/Reshape_1", "op": "Const", "attr": {"value": {"tensor": {"dtype": "DT_FLOAT", "tensorShape": {"dim": [{"size": "256"}, {"size": "256"}]}}}, "dtype": {"type": "DT_FLOAT"}}}, {"name": "Transformer-2-MultiHeadSelfAttention/dense_15/Reshape_2/shape/2", "op": "Const", "attr": {"value": {"tensor": {"dtype": "DT_INT32", "tensorShape": {}}}, "dtype": {"type": "DT_INT32"}}}, {"name": "Transformer-2-MultiHeadSelfAttention/dense_15/Reshape_3", "op": "Const", "attr": {"value": {"tensor": {"dtype": "DT_FLOAT", "tensorShape": {"dim": [{"size": "1"}, {"size": "1"}, {"size": "256"}]}}}, "dtype": {"type": "DT_FLOAT"}}}, {"name": "Transformer-2-MultiHeadSelfAttention/Reshape_2/shape/0", "op": "Const", "attr": {"value": {"tensor": {"dtype": "DT_INT32", "tensorShape": {}}}, "dtype": {"type": "DT_INT32"}}}, {"name": "Transformer-2-MultiHeadSelfAttention/strided_slice_2/stack", "op": "Const", "attr": {"value": {"tensor": {"dtype": "DT_INT32", "tensorShape": {"dim": [{"size": "1"}]}}}, "dtype": {"type": "DT_INT32"}}}, {"name": "Transformer-2-MultiHeadSelfAttention/strided_slice_2/stack_1", "op": "Const", "attr": {"value": {"tensor": {"dtype": "DT_INT32", "tensorShape": {"dim": [{"size": "1"}]}}}, "dtype": {"type": "DT_INT32"}}}, {"name": "Transformer-2-MultiHeadSelfAttention/strided_slice_2/stack_2", "op": "Const", "attr": {"dtype": {"type": "DT_INT32"}, "value": {"tensor": {"dtype": "DT_INT32", "tensorShape": {"dim": [{"size": "1"}]}}}}}, {"name": "Transformer-2-MultiHeadSelfAttention/Reshape_2/shape/2", "op": "Const", "attr": {"dtype": {"type": "DT_INT32"}, "value": {"tensor": {"dtype": "DT_INT32", "tensorShape": {}}}}}, {"name": "Transformer-2-MultiHeadSelfAttention/Reshape_2/shape/3", "op": "Const", "attr": {"dtype": {"type": "DT_INT32"}, "value": {"tensor": {"dtype": "DT_INT32", "tensorShape": {}}}}}, {"name": "Transformer-2-MultiHeadSelfAttention/einsum_1/transpose/perm", "op": "Const", "attr": {"dtype": {"type": "DT_INT32"}, "value": {"tensor": {"dtype": "DT_INT32", "tensorShape": {"dim": [{"size": "4"}]}}}}}, {"name": "Transformer-2-MultiHeadSelfAttention/einsum_1/strided_slice_3/stack", "op": "Const", "attr": {"value": {"tensor": {"dtype": "DT_INT32", "tensorShape": {"dim": [{"size": "1"}]}}}, "dtype": {"type": "DT_INT32"}}}, {"name": "Transformer-2-MultiHeadSelfAttention/einsum_1/strided_slice_3/stack_1", "op": "Const", "attr": {"dtype": {"type": "DT_INT32"}, "value": {"tensor": {"dtype": "DT_INT32", "tensorShape": {"dim": [{"size": "1"}]}}}}}, {"name": "Transformer-2-MultiHeadSelfAttention/einsum_1/strided_slice_3/stack_2", "op": "Const", "attr": {"dtype": {"type": "DT_INT32"}, "value": {"tensor": {"dtype": "DT_INT32", "tensorShape": {"dim": [{"size": "1"}]}}}}}, {"name": "Transformer-2-MultiHeadSelfAttention/einsum_1/Reshape_1/shape/1", "op": "Const", "attr": {"dtype": {"type": "DT_INT32"}, "value": {"tensor": {"dtype": "DT_INT32", "tensorShape": {}}}}}, {"name": "Transformer-2-MultiHeadSelfAttention/einsum_1/strided_slice_2/stack", "op": "Const", "attr": {"value": {"tensor": {"dtype": "DT_INT32", "tensorShape": {"dim": [{"size": "1"}]}}}, "dtype": {"type": "DT_INT32"}}}, {"name": "Transformer-2-MultiHeadSelfAttention/einsum_1/strided_slice_2/stack_1", "op": "Const", "attr": {"dtype": {"type": "DT_INT32"}, "value": {"tensor": {"dtype": "DT_INT32", "tensorShape": {"dim": [{"size": "1"}]}}}}}, {"name": "Transformer-2-MultiHeadSelfAttention/einsum_1/strided_slice_2/stack_2", "op": "Const", "attr": {"dtype": {"type": "DT_INT32"}, "value": {"tensor": {"dtype": "DT_INT32", "tensorShape": {"dim": [{"size": "1"}]}}}}}, {"name": "Transformer-2-MultiHeadSelfAttention/einsum_1/Reshape_1/shape/3", "op": "Const", "attr": {"value": {"tensor": {"dtype": "DT_INT32", "tensorShape": {}}}, "dtype": {"type": "DT_INT32"}}}, {"name": "Transformer-2-MultiHeadSelfAttention/einsum_1/strided_slice/stack", "op": "Const", "attr": {"value": {"tensor": {"dtype": "DT_INT32", "tensorShape": {"dim": [{"size": "1"}]}}}, "dtype": {"type": "DT_INT32"}}}, {"name": "Transformer-2-MultiHeadSelfAttention/einsum_1/strided_slice/stack_1", "op": "Const", "attr": {"dtype": {"type": "DT_INT32"}, "value": {"tensor": {"dtype": "DT_INT32", "tensorShape": {"dim": [{"size": "1"}]}}}}}, {"name": "Transformer-2-MultiHeadSelfAttention/einsum_1/strided_slice/stack_2", "op": "Const", "attr": {"value": {"tensor": {"dtype": "DT_INT32", "tensorShape": {"dim": [{"size": "1"}]}}}, "dtype": {"type": "DT_INT32"}}}, {"name": "Transformer-2-MultiHeadSelfAttention/einsum_1/Reshape_2/shape/1", "op": "Const", "attr": {"value": {"tensor": {"dtype": "DT_INT32", "tensorShape": {}}}, "dtype": {"type": "DT_INT32"}}}, {"name": "Transformer-2-MultiHeadSelfAttention/einsum/Reshape/shape/1", "op": "Const", "attr": {"value": {"tensor": {"dtype": "DT_INT32", "tensorShape": {}}}, "dtype": {"type": "DT_INT32"}}}, {"name": "Transformer-2-MultiHeadSelfAttention/einsum/Reshape/shape/3", "op": "Const", "attr": {"dtype": {"type": "DT_INT32"}, "value": {"tensor": {"dtype": "DT_INT32", "tensorShape": {}}}}}, {"name": "Transformer-2-MultiHeadSelfAttention/einsum/strided_slice_2/stack", "op": "Const", "attr": {"value": {"tensor": {"dtype": "DT_INT32", "tensorShape": {"dim": [{"size": "1"}]}}}, "dtype": {"type": "DT_INT32"}}}, {"name": "Transformer-2-MultiHeadSelfAttention/einsum/strided_slice_2/stack_1", "op": "Const", "attr": {"value": {"tensor": {"dtype": "DT_INT32", "tensorShape": {"dim": [{"size": "1"}]}}}, "dtype": {"type": "DT_INT32"}}}, {"name": "Transformer-2-MultiHeadSelfAttention/einsum/strided_slice_2/stack_2", "op": "Const", "attr": {"dtype": {"type": "DT_INT32"}, "value": {"tensor": {"dtype": "DT_INT32", "tensorShape": {"dim": [{"size": "1"}]}}}}}, {"name": "Transformer-2-MultiHeadSelfAttention/einsum/Reshape_1/shape/1", "op": "Const", "attr": {"dtype": {"type": "DT_INT32"}, "value": {"tensor": {"dtype": "DT_INT32", "tensorShape": {}}}}}, {"name": "Transformer-2-MultiHeadSelfAttention/einsum/Reshape_1/shape/2", "op": "Const", "attr": {"value": {"tensor": {"dtype": "DT_INT32", "tensorShape": {}}}, "dtype": {"type": "DT_INT32"}}}, {"name": "Transformer-2-MultiHeadSelfAttention/einsum/strided_slice/stack", "op": "Const", "attr": {"dtype": {"type": "DT_INT32"}, "value": {"tensor": {"dtype": "DT_INT32", "tensorShape": {"dim": [{"size": "1"}]}}}}}, {"name": "Transformer-2-MultiHeadSelfAttention/einsum/strided_slice/stack_1", "op": "Const", "attr": {"value": {"tensor": {"dtype": "DT_INT32", "tensorShape": {"dim": [{"size": "1"}]}}}, "dtype": {"type": "DT_INT32"}}}, {"name": "Transformer-2-MultiHeadSelfAttention/einsum/strided_slice/stack_2", "op": "Const", "attr": {"value": {"tensor": {"dtype": "DT_INT32", "tensorShape": {"dim": [{"size": "1"}]}}}, "dtype": {"type": "DT_INT32"}}}, {"name": "Transformer-2-MultiHeadSelfAttention/einsum/Reshape_2/shape/1", "op": "Const", "attr": {"value": {"tensor": {"dtype": "DT_INT32", "tensorShape": {}}}, "dtype": {"type": "DT_INT32"}}}, {"name": "Transformer-2-MultiHeadSelfAttention/dense_13/Reshape/shape", "op": "Const", "attr": {"dtype": {"type": "DT_INT32"}, "value": {"tensor": {"dtype": "DT_INT32", "tensorShape": {"dim": [{"size": "2"}]}}}}}, {"name": "Transformer-2-MultiHeadSelfAttention/dense_13/Reshape_1", "op": "Const", "attr": {"value": {"tensor": {"dtype": "DT_FLOAT", "tensorShape": {"dim": [{"size": "256"}, {"size": "256"}]}}}, "dtype": {"type": "DT_FLOAT"}}}, {"name": "Transformer-2-MultiHeadSelfAttention/dense_13/Reshape_2/shape/2", "op": "Const", "attr": {"dtype": {"type": "DT_INT32"}, "value": {"tensor": {"dtype": "DT_INT32", "tensorShape": {}}}}}, {"name": "Transformer-2-MultiHeadSelfAttention/dense_13/Reshape_3", "op": "Const", "attr": {"dtype": {"type": "DT_FLOAT"}, "value": {"tensor": {"dtype": "DT_FLOAT", "tensorShape": {"dim": [{"size": "1"}, {"size": "1"}, {"size": "256"}]}}}}}, {"name": "Transformer-2-MultiHeadSelfAttention/Reshape/shape/0", "op": "Const", "attr": {"value": {"tensor": {"dtype": "DT_INT32", "tensorShape": {}}}, "dtype": {"type": "DT_INT32"}}}, {"name": "Transformer-2-MultiHeadSelfAttention/strided_slice/stack", "op": "Const", "attr": {"value": {"tensor": {"dtype": "DT_INT32", "tensorShape": {"dim": [{"size": "1"}]}}}, "dtype": {"type": "DT_INT32"}}}, {"name": "Transformer-2-MultiHeadSelfAttention/strided_slice/stack_1", "op": "Const", "attr": {"value": {"tensor": {"dtype": "DT_INT32", "tensorShape": {"dim": [{"size": "1"}]}}}, "dtype": {"type": "DT_INT32"}}}, {"name": "Transformer-2-MultiHeadSelfAttention/strided_slice/stack_2", "op": "Const", "attr": {"dtype": {"type": "DT_INT32"}, "value": {"tensor": {"dtype": "DT_INT32", "tensorShape": {"dim": [{"size": "1"}]}}}}}, {"name": "Transformer-2-MultiHeadSelfAttention/Reshape/shape/2", "op": "Const", "attr": {"value": {"tensor": {"dtype": "DT_INT32", "tensorShape": {}}}, "dtype": {"type": "DT_INT32"}}}, {"name": "Transformer-2-MultiHeadSelfAttention/Reshape/shape/3", "op": "Const", "attr": {"dtype": {"type": "DT_INT32"}, "value": {"tensor": {"dtype": "DT_INT32", "tensorShape": {}}}}}, {"name": "Transformer-2-MultiHeadSelfAttention/einsum/transpose/perm", "op": "Const", "attr": {"value": {"tensor": {"dtype": "DT_INT32", "tensorShape": {"dim": [{"size": "4"}]}}}, "dtype": {"type": "DT_INT32"}}}, {"name": "Transformer-2-MultiHeadSelfAttention/einsum/strided_slice_1/stack", "op": "Const", "attr": {"value": {"tensor": {"dtype": "DT_INT32", "tensorShape": {"dim": [{"size": "1"}]}}}, "dtype": {"type": "DT_INT32"}}}, {"name": "Transformer-2-MultiHeadSelfAttention/einsum/strided_slice_1/stack_1", "op": "Const", "attr": {"dtype": {"type": "DT_INT32"}, "value": {"tensor": {"dtype": "DT_INT32", "tensorShape": {"dim": [{"size": "1"}]}}}}}, {"name": "Transformer-2-MultiHeadSelfAttention/einsum/strided_slice_1/stack_2", "op": "Const", "attr": {"dtype": {"type": "DT_INT32"}, "value": {"tensor": {"dtype": "DT_INT32", "tensorShape": {"dim": [{"size": "1"}]}}}}}, {"name": "Transformer-2-MultiHeadSelfAttention/dense_14/Reshape/shape", "op": "Const", "attr": {"dtype": {"type": "DT_INT32"}, "value": {"tensor": {"dtype": "DT_INT32", "tensorShape": {"dim": [{"size": "2"}]}}}}}, {"name": "Transformer-2-MultiHeadSelfAttention/dense_14/Reshape_1", "op": "Const", "attr": {"value": {"tensor": {"dtype": "DT_FLOAT", "tensorShape": {"dim": [{"size": "256"}, {"size": "256"}]}}}, "dtype": {"type": "DT_FLOAT"}}}, {"name": "Transformer-2-MultiHeadSelfAttention/dense_14/Reshape_2/shape/2", "op": "Const", "attr": {"dtype": {"type": "DT_INT32"}, "value": {"tensor": {"dtype": "DT_INT32", "tensorShape": {}}}}}, {"name": "Transformer-2-MultiHeadSelfAttention/dense_14/Reshape_3", "op": "Const", "attr": {"value": {"tensor": {"dtype": "DT_FLOAT", "tensorShape": {"dim": [{"size": "1"}, {"size": "1"}, {"size": "256"}]}}}, "dtype": {"type": "DT_FLOAT"}}}, {"name": "Transformer-2-MultiHeadSelfAttention/Reshape_1/shape/0", "op": "Const", "attr": {"dtype": {"type": "DT_INT32"}, "value": {"tensor": {"dtype": "DT_INT32", "tensorShape": {}}}}}, {"name": "Transformer-1-FeedForward-Norm/gamma", "op": "Const", "attr": {"dtype": {"type": "DT_FLOAT"}, "value": {"tensor": {"dtype": "DT_FLOAT", "tensorShape": {"dim": [{"size": "256"}]}}}}}, {"name": "Transformer-1-FeedForward/dense_12/Reshape/shape", "op": "Const", "attr": {"value": {"tensor": {"dtype": "DT_INT32", "tensorShape": {"dim": [{"size": "2"}]}}}, "dtype": {"type": "DT_INT32"}}}, {"name": "Transformer-1-FeedForward/dense_12/Reshape_1", "op": "Const", "attr": {"dtype": {"type": "DT_FLOAT"}, "value": {"tensor": {"dtype": "DT_FLOAT", "tensorShape": {"dim": [{"size": "512"}, {"size": "256"}]}}}}}, {"name": "Transformer-1-FeedForward/dense_11/mul/x", "op": "Const", "attr": {"value": {"tensor": {"dtype": "DT_FLOAT", "tensorShape": {}}}, "dtype": {"type": "DT_FLOAT"}}}, {"name": "Transformer-1-FeedForward/dense_11/add_1/x", "op": "Const", "attr": {"value": {"tensor": {"dtype": "DT_FLOAT", "tensorShape": {}}}, "dtype": {"type": "DT_FLOAT"}}}, {"name": "Transformer-1-FeedForward/dense_11/Reshape/shape", "op": "Const", "attr": {"dtype": {"type": "DT_INT32"}, "value": {"tensor": {"dtype": "DT_INT32", "tensorShape": {"dim": [{"size": "2"}]}}}}}, {"name": "Transformer-1-FeedForward/dense_11/Reshape_1", "op": "Const", "attr": {"dtype": {"type": "DT_FLOAT"}, "value": {"tensor": {"dtype": "DT_FLOAT", "tensorShape": {"dim": [{"size": "256"}, {"size": "512"}]}}}}}, {"name": "Transformer-1-MultiHeadSelfAttention-Norm/gamma", "op": "Const", "attr": {"dtype": {"type": "DT_FLOAT"}, "value": {"tensor": {"dtype": "DT_FLOAT", "tensorShape": {"dim": [{"size": "256"}]}}}}}, {"name": "Transformer-1-MultiHeadSelfAttention/dense_10/Reshape/shape", "op": "Const", "attr": {"value": {"tensor": {"dtype": "DT_INT32", "tensorShape": {"dim": [{"size": "2"}]}}}, "dtype": {"type": "DT_INT32"}}}, {"name": "Transformer-1-MultiHeadSelfAttention/dense_10/Reshape_1", "op": "Const", "attr": {"dtype": {"type": "DT_FLOAT"}, "value": {"tensor": {"dtype": "DT_FLOAT", "tensorShape": {"dim": [{"size": "256"}, {"size": "256"}]}}}}}, {"name": "Transformer-1-MultiHeadSelfAttention/Reshape_3/shape/0", "op": "Const", "attr": {"value": {"tensor": {"dtype": "DT_INT32", "tensorShape": {}}}, "dtype": {"type": "DT_INT32"}}}, {"name": "Transformer-1-MultiHeadSelfAttention/einsum_1/Reshape/shape/1", "op": "Const", "attr": {"dtype": {"type": "DT_INT32"}, "value": {"tensor": {"dtype": "DT_INT32", "tensorShape": {}}}}}, {"name": "Transformer-1-MultiHeadSelfAttention/dense_9/Reshape/shape", "op": "Const", "attr": {"value": {"tensor": {"dtype": "DT_INT32", "tensorShape": {"dim": [{"size": "2"}]}}}, "dtype": {"type": "DT_INT32"}}}, {"name": "Transformer-1-MultiHeadSelfAttention/dense_9/Reshape_1", "op": "Const", "attr": {"value": {"tensor": {"dtype": "DT_FLOAT", "tensorShape": {"dim": [{"size": "256"}, {"size": "256"}]}}}, "dtype": {"type": "DT_FLOAT"}}}, {"name": "Transformer-1-MultiHeadSelfAttention/dense_9/Reshape_2/shape/2", "op": "Const", "attr": {"value": {"tensor": {"dtype": "DT_INT32", "tensorShape": {}}}, "dtype": {"type": "DT_INT32"}}}, {"name": "Transformer-1-MultiHeadSelfAttention/dense_9/Reshape_3", "op": "Const", "attr": {"value": {"tensor": {"dtype": "DT_FLOAT", "tensorShape": {"dim": [{"size": "1"}, {"size": "1"}, {"size": "256"}]}}}, "dtype": {"type": "DT_FLOAT"}}}, {"name": "Transformer-1-MultiHeadSelfAttention/Reshape_2/shape/0", "op": "Const", "attr": {"value": {"tensor": {"dtype": "DT_INT32", "tensorShape": {}}}, "dtype": {"type": "DT_INT32"}}}, {"name": "Transformer-1-MultiHeadSelfAttention/strided_slice_2/stack", "op": "Const", "attr": {"dtype": {"type": "DT_INT32"}, "value": {"tensor": {"dtype": "DT_INT32", "tensorShape": {"dim": [{"size": "1"}]}}}}}, {"name": "Transformer-1-MultiHeadSelfAttention/strided_slice_2/stack_1", "op": "Const", "attr": {"value": {"tensor": {"dtype": "DT_INT32", "tensorShape": {"dim": [{"size": "1"}]}}}, "dtype": {"type": "DT_INT32"}}}, {"name": "Transformer-1-MultiHeadSelfAttention/strided_slice_2/stack_2", "op": "Const", "attr": {"dtype": {"type": "DT_INT32"}, "value": {"tensor": {"dtype": "DT_INT32", "tensorShape": {"dim": [{"size": "1"}]}}}}}, {"name": "Transformer-1-MultiHeadSelfAttention/Reshape_2/shape/2", "op": "Const", "attr": {"dtype": {"type": "DT_INT32"}, "value": {"tensor": {"dtype": "DT_INT32", "tensorShape": {}}}}}, {"name": "Transformer-1-MultiHeadSelfAttention/Reshape_2/shape/3", "op": "Const", "attr": {"value": {"tensor": {"dtype": "DT_INT32", "tensorShape": {}}}, "dtype": {"type": "DT_INT32"}}}, {"name": "Transformer-1-MultiHeadSelfAttention/einsum_1/transpose/perm", "op": "Const", "attr": {"dtype": {"type": "DT_INT32"}, "value": {"tensor": {"dtype": "DT_INT32", "tensorShape": {"dim": [{"size": "4"}]}}}}}, {"name": "Transformer-1-MultiHeadSelfAttention/einsum_1/strided_slice_3/stack", "op": "Const", "attr": {"dtype": {"type": "DT_INT32"}, "value": {"tensor": {"dtype": "DT_INT32", "tensorShape": {"dim": [{"size": "1"}]}}}}}, {"name": "Transformer-1-MultiHeadSelfAttention/einsum_1/strided_slice_3/stack_1", "op": "Const", "attr": {"dtype": {"type": "DT_INT32"}, "value": {"tensor": {"dtype": "DT_INT32", "tensorShape": {"dim": [{"size": "1"}]}}}}}, {"name": "Transformer-1-MultiHeadSelfAttention/einsum_1/strided_slice_3/stack_2", "op": "Const", "attr": {"dtype": {"type": "DT_INT32"}, "value": {"tensor": {"dtype": "DT_INT32", "tensorShape": {"dim": [{"size": "1"}]}}}}}, {"name": "Transformer-1-MultiHeadSelfAttention/einsum_1/Reshape_1/shape/1", "op": "Const", "attr": {"dtype": {"type": "DT_INT32"}, "value": {"tensor": {"dtype": "DT_INT32", "tensorShape": {}}}}}, {"name": "Transformer-1-MultiHeadSelfAttention/einsum_1/strided_slice_2/stack", "op": "Const", "attr": {"dtype": {"type": "DT_INT32"}, "value": {"tensor": {"dtype": "DT_INT32", "tensorShape": {"dim": [{"size": "1"}]}}}}}, {"name": "Transformer-1-MultiHeadSelfAttention/einsum_1/strided_slice_2/stack_1", "op": "Const", "attr": {"value": {"tensor": {"dtype": "DT_INT32", "tensorShape": {"dim": [{"size": "1"}]}}}, "dtype": {"type": "DT_INT32"}}}, {"name": "Transformer-1-MultiHeadSelfAttention/einsum_1/strided_slice_2/stack_2", "op": "Const", "attr": {"value": {"tensor": {"dtype": "DT_INT32", "tensorShape": {"dim": [{"size": "1"}]}}}, "dtype": {"type": "DT_INT32"}}}, {"name": "Transformer-1-MultiHeadSelfAttention/einsum_1/Reshape_1/shape/3", "op": "Const", "attr": {"value": {"tensor": {"dtype": "DT_INT32", "tensorShape": {}}}, "dtype": {"type": "DT_INT32"}}}, {"name": "Transformer-1-MultiHeadSelfAttention/einsum_1/strided_slice/stack", "op": "Const", "attr": {"value": {"tensor": {"dtype": "DT_INT32", "tensorShape": {"dim": [{"size": "1"}]}}}, "dtype": {"type": "DT_INT32"}}}, {"name": "Transformer-1-MultiHeadSelfAttention/einsum_1/strided_slice/stack_1", "op": "Const", "attr": {"dtype": {"type": "DT_INT32"}, "value": {"tensor": {"dtype": "DT_INT32", "tensorShape": {"dim": [{"size": "1"}]}}}}}, {"name": "Transformer-1-MultiHeadSelfAttention/einsum_1/strided_slice/stack_2", "op": "Const", "attr": {"value": {"tensor": {"dtype": "DT_INT32", "tensorShape": {"dim": [{"size": "1"}]}}}, "dtype": {"type": "DT_INT32"}}}, {"name": "Transformer-1-MultiHeadSelfAttention/einsum_1/Reshape_2/shape/1", "op": "Const", "attr": {"value": {"tensor": {"dtype": "DT_INT32", "tensorShape": {}}}, "dtype": {"type": "DT_INT32"}}}, {"name": "Transformer-1-MultiHeadSelfAttention/einsum/Reshape/shape/1", "op": "Const", "attr": {"dtype": {"type": "DT_INT32"}, "value": {"tensor": {"dtype": "DT_INT32", "tensorShape": {}}}}}, {"name": "Transformer-1-MultiHeadSelfAttention/einsum/Reshape/shape/3", "op": "Const", "attr": {"dtype": {"type": "DT_INT32"}, "value": {"tensor": {"dtype": "DT_INT32", "tensorShape": {}}}}}, {"name": "Transformer-1-MultiHeadSelfAttention/einsum/strided_slice_2/stack", "op": "Const", "attr": {"dtype": {"type": "DT_INT32"}, "value": {"tensor": {"dtype": "DT_INT32", "tensorShape": {"dim": [{"size": "1"}]}}}}}, {"name": "Transformer-1-MultiHeadSelfAttention/einsum/strided_slice_2/stack_1", "op": "Const", "attr": {"dtype": {"type": "DT_INT32"}, "value": {"tensor": {"dtype": "DT_INT32", "tensorShape": {"dim": [{"size": "1"}]}}}}}, {"name": "Transformer-1-MultiHeadSelfAttention/einsum/strided_slice_2/stack_2", "op": "Const", "attr": {"value": {"tensor": {"dtype": "DT_INT32", "tensorShape": {"dim": [{"size": "1"}]}}}, "dtype": {"type": "DT_INT32"}}}, {"name": "Transformer-1-MultiHeadSelfAttention/einsum/Reshape_1/shape/1", "op": "Const", "attr": {"dtype": {"type": "DT_INT32"}, "value": {"tensor": {"dtype": "DT_INT32", "tensorShape": {}}}}}, {"name": "Transformer-1-MultiHeadSelfAttention/einsum/Reshape_1/shape/2", "op": "Const", "attr": {"dtype": {"type": "DT_INT32"}, "value": {"tensor": {"dtype": "DT_INT32", "tensorShape": {}}}}}, {"name": "Transformer-1-MultiHeadSelfAttention/einsum/strided_slice/stack", "op": "Const", "attr": {"dtype": {"type": "DT_INT32"}, "value": {"tensor": {"dtype": "DT_INT32", "tensorShape": {"dim": [{"size": "1"}]}}}}}, {"name": "Transformer-1-MultiHeadSelfAttention/einsum/strided_slice/stack_1", "op": "Const", "attr": {"dtype": {"type": "DT_INT32"}, "value": {"tensor": {"dtype": "DT_INT32", "tensorShape": {"dim": [{"size": "1"}]}}}}}, {"name": "Transformer-1-MultiHeadSelfAttention/einsum/strided_slice/stack_2", "op": "Const", "attr": {"dtype": {"type": "DT_INT32"}, "value": {"tensor": {"dtype": "DT_INT32", "tensorShape": {"dim": [{"size": "1"}]}}}}}, {"name": "Transformer-1-MultiHeadSelfAttention/einsum/Reshape_2/shape/1", "op": "Const", "attr": {"dtype": {"type": "DT_INT32"}, "value": {"tensor": {"dtype": "DT_INT32", "tensorShape": {}}}}}, {"name": "Transformer-1-MultiHeadSelfAttention/dense_7/Reshape/shape", "op": "Const", "attr": {"dtype": {"type": "DT_INT32"}, "value": {"tensor": {"dtype": "DT_INT32", "tensorShape": {"dim": [{"size": "2"}]}}}}}, {"name": "Transformer-1-MultiHeadSelfAttention/dense_7/Reshape_1", "op": "Const", "attr": {"value": {"tensor": {"dtype": "DT_FLOAT", "tensorShape": {"dim": [{"size": "256"}, {"size": "256"}]}}}, "dtype": {"type": "DT_FLOAT"}}}, {"name": "Transformer-1-MultiHeadSelfAttention/dense_7/Reshape_2/shape/2", "op": "Const", "attr": {"dtype": {"type": "DT_INT32"}, "value": {"tensor": {"dtype": "DT_INT32", "tensorShape": {}}}}}, {"name": "Transformer-1-MultiHeadSelfAttention/dense_7/Reshape_3", "op": "Const", "attr": {"value": {"tensor": {"dtype": "DT_FLOAT", "tensorShape": {"dim": [{"size": "1"}, {"size": "1"}, {"size": "256"}]}}}, "dtype": {"type": "DT_FLOAT"}}}, {"name": "Transformer-1-MultiHeadSelfAttention/Reshape/shape/0", "op": "Const", "attr": {"value": {"tensor": {"dtype": "DT_INT32", "tensorShape": {}}}, "dtype": {"type": "DT_INT32"}}}, {"name": "Transformer-1-MultiHeadSelfAttention/strided_slice/stack", "op": "Const", "attr": {"dtype": {"type": "DT_INT32"}, "value": {"tensor": {"dtype": "DT_INT32", "tensorShape": {"dim": [{"size": "1"}]}}}}}, {"name": "Transformer-1-MultiHeadSelfAttention/strided_slice/stack_1", "op": "Const", "attr": {"dtype": {"type": "DT_INT32"}, "value": {"tensor": {"dtype": "DT_INT32", "tensorShape": {"dim": [{"size": "1"}]}}}}}, {"name": "Transformer-1-MultiHeadSelfAttention/strided_slice/stack_2", "op": "Const", "attr": {"value": {"tensor": {"dtype": "DT_INT32", "tensorShape": {"dim": [{"size": "1"}]}}}, "dtype": {"type": "DT_INT32"}}}, {"name": "Transformer-1-MultiHeadSelfAttention/Reshape/shape/2", "op": "Const", "attr": {"value": {"tensor": {"dtype": "DT_INT32", "tensorShape": {}}}, "dtype": {"type": "DT_INT32"}}}, {"name": "Transformer-1-MultiHeadSelfAttention/Reshape/shape/3", "op": "Const", "attr": {"dtype": {"type": "DT_INT32"}, "value": {"tensor": {"dtype": "DT_INT32", "tensorShape": {}}}}}, {"name": "Transformer-1-MultiHeadSelfAttention/einsum/transpose/perm", "op": "Const", "attr": {"value": {"tensor": {"dtype": "DT_INT32", "tensorShape": {"dim": [{"size": "4"}]}}}, "dtype": {"type": "DT_INT32"}}}, {"name": "Transformer-1-MultiHeadSelfAttention/einsum/strided_slice_1/stack", "op": "Const", "attr": {"value": {"tensor": {"dtype": "DT_INT32", "tensorShape": {"dim": [{"size": "1"}]}}}, "dtype": {"type": "DT_INT32"}}}, {"name": "Transformer-1-MultiHeadSelfAttention/einsum/strided_slice_1/stack_1", "op": "Const", "attr": {"dtype": {"type": "DT_INT32"}, "value": {"tensor": {"dtype": "DT_INT32", "tensorShape": {"dim": [{"size": "1"}]}}}}}, {"name": "Transformer-1-MultiHeadSelfAttention/einsum/strided_slice_1/stack_2", "op": "Const", "attr": {"value": {"tensor": {"dtype": "DT_INT32", "tensorShape": {"dim": [{"size": "1"}]}}}, "dtype": {"type": "DT_INT32"}}}, {"name": "Transformer-1-MultiHeadSelfAttention/dense_8/Reshape/shape", "op": "Const", "attr": {"value": {"tensor": {"dtype": "DT_INT32", "tensorShape": {"dim": [{"size": "2"}]}}}, "dtype": {"type": "DT_INT32"}}}, {"name": "Transformer-1-MultiHeadSelfAttention/dense_8/Reshape_1", "op": "Const", "attr": {"value": {"tensor": {"dtype": "DT_FLOAT", "tensorShape": {"dim": [{"size": "256"}, {"size": "256"}]}}}, "dtype": {"type": "DT_FLOAT"}}}, {"name": "Transformer-1-MultiHeadSelfAttention/dense_8/Reshape_2/shape/2", "op": "Const", "attr": {"dtype": {"type": "DT_INT32"}, "value": {"tensor": {"dtype": "DT_INT32", "tensorShape": {}}}}}, {"name": "Transformer-1-MultiHeadSelfAttention/dense_8/Reshape_3", "op": "Const", "attr": {"value": {"tensor": {"dtype": "DT_FLOAT", "tensorShape": {"dim": [{"size": "1"}, {"size": "1"}, {"size": "256"}]}}}, "dtype": {"type": "DT_FLOAT"}}}, {"name": "Transformer-1-MultiHeadSelfAttention/Reshape_1/shape/0", "op": "Const", "attr": {"dtype": {"type": "DT_INT32"}, "value": {"tensor": {"dtype": "DT_INT32", "tensorShape": {}}}}}, {"name": "Transformer-0-FeedForward-Norm/gamma", "op": "Const", "attr": {"value": {"tensor": {"dtype": "DT_FLOAT", "tensorShape": {"dim": [{"size": "256"}]}}}, "dtype": {"type": "DT_FLOAT"}}}, {"name": "Transformer-0-FeedForward/dense_6/Reshape/shape", "op": "Const", "attr": {"dtype": {"type": "DT_INT32"}, "value": {"tensor": {"dtype": "DT_INT32", "tensorShape": {"dim": [{"size": "2"}]}}}}}, {"name": "Transformer-0-FeedForward/dense_6/Reshape_1", "op": "Const", "attr": {"dtype": {"type": "DT_FLOAT"}, "value": {"tensor": {"dtype": "DT_FLOAT", "tensorShape": {"dim": [{"size": "512"}, {"size": "256"}]}}}}}, {"name": "Transformer-0-FeedForward/dense_5/mul/x", "op": "Const", "attr": {"dtype": {"type": "DT_FLOAT"}, "value": {"tensor": {"dtype": "DT_FLOAT", "tensorShape": {}}}}}, {"name": "Transformer-0-FeedForward/dense_5/add_1/x", "op": "Const", "attr": {"dtype": {"type": "DT_FLOAT"}, "value": {"tensor": {"dtype": "DT_FLOAT", "tensorShape": {}}}}}, {"name": "Transformer-0-FeedForward/dense_5/Reshape/shape", "op": "Const", "attr": {"dtype": {"type": "DT_INT32"}, "value": {"tensor": {"dtype": "DT_INT32", "tensorShape": {"dim": [{"size": "2"}]}}}}}, {"name": "Transformer-0-FeedForward/dense_5/Reshape_1", "op": "Const", "attr": {"dtype": {"type": "DT_FLOAT"}, "value": {"tensor": {"dtype": "DT_FLOAT", "tensorShape": {"dim": [{"size": "256"}, {"size": "512"}]}}}}}, {"name": "Transformer-0-MultiHeadSelfAttention-Norm/gamma", "op": "Const", "attr": {"value": {"tensor": {"dtype": "DT_FLOAT", "tensorShape": {"dim": [{"size": "256"}]}}}, "dtype": {"type": "DT_FLOAT"}}}, {"name": "Transformer-0-MultiHeadSelfAttention/dense_4/Reshape/shape", "op": "Const", "attr": {"value": {"tensor": {"dtype": "DT_INT32", "tensorShape": {"dim": [{"size": "2"}]}}}, "dtype": {"type": "DT_INT32"}}}, {"name": "Transformer-0-MultiHeadSelfAttention/dense_4/Reshape_1", "op": "Const", "attr": {"value": {"tensor": {"dtype": "DT_FLOAT", "tensorShape": {"dim": [{"size": "256"}, {"size": "256"}]}}}, "dtype": {"type": "DT_FLOAT"}}}, {"name": "Transformer-0-MultiHeadSelfAttention/Reshape_3/shape/0", "op": "Const", "attr": {"value": {"tensor": {"dtype": "DT_INT32", "tensorShape": {}}}, "dtype": {"type": "DT_INT32"}}}, {"name": "Transformer-0-MultiHeadSelfAttention/einsum_1/Reshape/shape/1", "op": "Const", "attr": {"value": {"tensor": {"dtype": "DT_INT32", "tensorShape": {}}}, "dtype": {"type": "DT_INT32"}}}, {"name": "Transformer-0-MultiHeadSelfAttention/dense_3/Reshape/shape", "op": "Const", "attr": {"dtype": {"type": "DT_INT32"}, "value": {"tensor": {"dtype": "DT_INT32", "tensorShape": {"dim": [{"size": "2"}]}}}}}, {"name": "Transformer-0-MultiHeadSelfAttention/dense_3/Reshape_1", "op": "Const", "attr": {"dtype": {"type": "DT_FLOAT"}, "value": {"tensor": {"dtype": "DT_FLOAT", "tensorShape": {"dim": [{"size": "256"}, {"size": "256"}]}}}}}, {"name": "Transformer-0-MultiHeadSelfAttention/dense_3/Reshape_2/shape/2", "op": "Const", "attr": {"value": {"tensor": {"dtype": "DT_INT32", "tensorShape": {}}}, "dtype": {"type": "DT_INT32"}}}, {"name": "Transformer-0-MultiHeadSelfAttention/dense_3/Reshape_3", "op": "Const", "attr": {"value": {"tensor": {"dtype": "DT_FLOAT", "tensorShape": {"dim": [{"size": "1"}, {"size": "1"}, {"size": "256"}]}}}, "dtype": {"type": "DT_FLOAT"}}}, {"name": "Transformer-0-MultiHeadSelfAttention/Reshape_2/shape/0", "op": "Const", "attr": {"value": {"tensor": {"dtype": "DT_INT32", "tensorShape": {}}}, "dtype": {"type": "DT_INT32"}}}, {"name": "Transformer-0-MultiHeadSelfAttention/strided_slice_2/stack", "op": "Const", "attr": {"value": {"tensor": {"dtype": "DT_INT32", "tensorShape": {"dim": [{"size": "1"}]}}}, "dtype": {"type": "DT_INT32"}}}, {"name": "Transformer-0-MultiHeadSelfAttention/strided_slice_2/stack_1", "op": "Const", "attr": {"value": {"tensor": {"dtype": "DT_INT32", "tensorShape": {"dim": [{"size": "1"}]}}}, "dtype": {"type": "DT_INT32"}}}, {"name": "Transformer-0-MultiHeadSelfAttention/strided_slice_2/stack_2", "op": "Const", "attr": {"dtype": {"type": "DT_INT32"}, "value": {"tensor": {"dtype": "DT_INT32", "tensorShape": {"dim": [{"size": "1"}]}}}}}, {"name": "Transformer-0-MultiHeadSelfAttention/Reshape_2/shape/2", "op": "Const", "attr": {"value": {"tensor": {"dtype": "DT_INT32", "tensorShape": {}}}, "dtype": {"type": "DT_INT32"}}}, {"name": "Transformer-0-MultiHeadSelfAttention/Reshape_2/shape/3", "op": "Const", "attr": {"dtype": {"type": "DT_INT32"}, "value": {"tensor": {"dtype": "DT_INT32", "tensorShape": {}}}}}, {"name": "Transformer-0-MultiHeadSelfAttention/einsum_1/transpose/perm", "op": "Const", "attr": {"value": {"tensor": {"dtype": "DT_INT32", "tensorShape": {"dim": [{"size": "4"}]}}}, "dtype": {"type": "DT_INT32"}}}, {"name": "Transformer-0-MultiHeadSelfAttention/einsum_1/strided_slice_3/stack", "op": "Const", "attr": {"value": {"tensor": {"dtype": "DT_INT32", "tensorShape": {"dim": [{"size": "1"}]}}}, "dtype": {"type": "DT_INT32"}}}, {"name": "Transformer-0-MultiHeadSelfAttention/einsum_1/strided_slice_3/stack_1", "op": "Const", "attr": {"value": {"tensor": {"dtype": "DT_INT32", "tensorShape": {"dim": [{"size": "1"}]}}}, "dtype": {"type": "DT_INT32"}}}, {"name": "Transformer-0-MultiHeadSelfAttention/einsum_1/strided_slice_3/stack_2", "op": "Const", "attr": {"value": {"tensor": {"dtype": "DT_INT32", "tensorShape": {"dim": [{"size": "1"}]}}}, "dtype": {"type": "DT_INT32"}}}, {"name": "Transformer-0-MultiHeadSelfAttention/einsum_1/Reshape_1/shape/1", "op": "Const", "attr": {"value": {"tensor": {"dtype": "DT_INT32", "tensorShape": {}}}, "dtype": {"type": "DT_INT32"}}}, {"name": "Transformer-0-MultiHeadSelfAttention/einsum_1/strided_slice_2/stack", "op": "Const", "attr": {"value": {"tensor": {"dtype": "DT_INT32", "tensorShape": {"dim": [{"size": "1"}]}}}, "dtype": {"type": "DT_INT32"}}}, {"name": "Transformer-0-MultiHeadSelfAttention/einsum_1/strided_slice_2/stack_1", "op": "Const", "attr": {"dtype": {"type": "DT_INT32"}, "value": {"tensor": {"dtype": "DT_INT32", "tensorShape": {"dim": [{"size": "1"}]}}}}}, {"name": "Transformer-0-MultiHeadSelfAttention/einsum_1/strided_slice_2/stack_2", "op": "Const", "attr": {"value": {"tensor": {"dtype": "DT_INT32", "tensorShape": {"dim": [{"size": "1"}]}}}, "dtype": {"type": "DT_INT32"}}}, {"name": "Transformer-0-MultiHeadSelfAttention/einsum_1/Reshape_1/shape/3", "op": "Const", "attr": {"value": {"tensor": {"dtype": "DT_INT32", "tensorShape": {}}}, "dtype": {"type": "DT_INT32"}}}, {"name": "Transformer-0-MultiHeadSelfAttention/einsum_1/strided_slice/stack", "op": "Const", "attr": {"dtype": {"type": "DT_INT32"}, "value": {"tensor": {"dtype": "DT_INT32", "tensorShape": {"dim": [{"size": "1"}]}}}}}, {"name": "Transformer-0-MultiHeadSelfAttention/einsum_1/strided_slice/stack_1", "op": "Const", "attr": {"dtype": {"type": "DT_INT32"}, "value": {"tensor": {"dtype": "DT_INT32", "tensorShape": {"dim": [{"size": "1"}]}}}}}, {"name": "Transformer-0-MultiHeadSelfAttention/einsum_1/strided_slice/stack_2", "op": "Const", "attr": {"value": {"tensor": {"dtype": "DT_INT32", "tensorShape": {"dim": [{"size": "1"}]}}}, "dtype": {"type": "DT_INT32"}}}, {"name": "Transformer-0-MultiHeadSelfAttention/einsum_1/Reshape_2/shape/1", "op": "Const", "attr": {"dtype": {"type": "DT_INT32"}, "value": {"tensor": {"dtype": "DT_INT32", "tensorShape": {}}}}}, {"name": "Transformer-0-MultiHeadSelfAttention/einsum/Reshape/shape/1", "op": "Const", "attr": {"value": {"tensor": {"dtype": "DT_INT32", "tensorShape": {}}}, "dtype": {"type": "DT_INT32"}}}, {"name": "Transformer-0-MultiHeadSelfAttention/einsum/Reshape/shape/3", "op": "Const", "attr": {"value": {"tensor": {"dtype": "DT_INT32", "tensorShape": {}}}, "dtype": {"type": "DT_INT32"}}}, {"name": "Transformer-0-MultiHeadSelfAttention/einsum/strided_slice_2/stack", "op": "Const", "attr": {"dtype": {"type": "DT_INT32"}, "value": {"tensor": {"dtype": "DT_INT32", "tensorShape": {"dim": [{"size": "1"}]}}}}}, {"name": "Transformer-0-MultiHeadSelfAttention/einsum/strided_slice_2/stack_1", "op": "Const", "attr": {"dtype": {"type": "DT_INT32"}, "value": {"tensor": {"dtype": "DT_INT32", "tensorShape": {"dim": [{"size": "1"}]}}}}}, {"name": "Transformer-0-MultiHeadSelfAttention/einsum/strided_slice_2/stack_2", "op": "Const", "attr": {"dtype": {"type": "DT_INT32"}, "value": {"tensor": {"dtype": "DT_INT32", "tensorShape": {"dim": [{"size": "1"}]}}}}}, {"name": "Transformer-0-MultiHeadSelfAttention/einsum/Reshape_1/shape/1", "op": "Const", "attr": {"value": {"tensor": {"dtype": "DT_INT32", "tensorShape": {}}}, "dtype": {"type": "DT_INT32"}}}, {"name": "Transformer-0-MultiHeadSelfAttention/einsum/Reshape_1/shape/2", "op": "Const", "attr": {"dtype": {"type": "DT_INT32"}, "value": {"tensor": {"dtype": "DT_INT32", "tensorShape": {}}}}}, {"name": "Transformer-0-MultiHeadSelfAttention/einsum/strided_slice/stack", "op": "Const", "attr": {"dtype": {"type": "DT_INT32"}, "value": {"tensor": {"dtype": "DT_INT32", "tensorShape": {"dim": [{"size": "1"}]}}}}}, {"name": "Transformer-0-MultiHeadSelfAttention/einsum/strided_slice/stack_1", "op": "Const", "attr": {"value": {"tensor": {"dtype": "DT_INT32", "tensorShape": {"dim": [{"size": "1"}]}}}, "dtype": {"type": "DT_INT32"}}}, {"name": "Transformer-0-MultiHeadSelfAttention/einsum/strided_slice/stack_2", "op": "Const", "attr": {"dtype": {"type": "DT_INT32"}, "value": {"tensor": {"dtype": "DT_INT32", "tensorShape": {"dim": [{"size": "1"}]}}}}}, {"name": "Transformer-0-MultiHeadSelfAttention/einsum/Reshape_2/shape/1", "op": "Const", "attr": {"dtype": {"type": "DT_INT32"}, "value": {"tensor": {"dtype": "DT_INT32", "tensorShape": {}}}}}, {"name": "Transformer-0-MultiHeadSelfAttention/dense_1/Reshape/shape", "op": "Const", "attr": {"dtype": {"type": "DT_INT32"}, "value": {"tensor": {"dtype": "DT_INT32", "tensorShape": {"dim": [{"size": "2"}]}}}}}, {"name": "Transformer-0-MultiHeadSelfAttention/dense_1/Reshape_1", "op": "Const", "attr": {"value": {"tensor": {"dtype": "DT_FLOAT", "tensorShape": {"dim": [{"size": "256"}, {"size": "256"}]}}}, "dtype": {"type": "DT_FLOAT"}}}, {"name": "Transformer-0-MultiHeadSelfAttention/dense_1/Reshape_2/shape/2", "op": "Const", "attr": {"value": {"tensor": {"dtype": "DT_INT32", "tensorShape": {}}}, "dtype": {"type": "DT_INT32"}}}, {"name": "Transformer-0-MultiHeadSelfAttention/dense_1/Reshape_3", "op": "Const", "attr": {"dtype": {"type": "DT_FLOAT"}, "value": {"tensor": {"dtype": "DT_FLOAT", "tensorShape": {"dim": [{"size": "1"}, {"size": "1"}, {"size": "256"}]}}}}}, {"name": "Transformer-0-MultiHeadSelfAttention/Reshape/shape/0", "op": "Const", "attr": {"dtype": {"type": "DT_INT32"}, "value": {"tensor": {"dtype": "DT_INT32", "tensorShape": {}}}}}, {"name": "Transformer-0-MultiHeadSelfAttention/strided_slice/stack", "op": "Const", "attr": {"dtype": {"type": "DT_INT32"}, "value": {"tensor": {"dtype": "DT_INT32", "tensorShape": {"dim": [{"size": "1"}]}}}}}, {"name": "Transformer-0-MultiHeadSelfAttention/strided_slice/stack_1", "op": "Const", "attr": {"value": {"tensor": {"dtype": "DT_INT32", "tensorShape": {"dim": [{"size": "1"}]}}}, "dtype": {"type": "DT_INT32"}}}, {"name": "Transformer-0-MultiHeadSelfAttention/strided_slice/stack_2", "op": "Const", "attr": {"value": {"tensor": {"dtype": "DT_INT32", "tensorShape": {"dim": [{"size": "1"}]}}}, "dtype": {"type": "DT_INT32"}}}, {"name": "Transformer-0-MultiHeadSelfAttention/Reshape/shape/2", "op": "Const", "attr": {"dtype": {"type": "DT_INT32"}, "value": {"tensor": {"dtype": "DT_INT32", "tensorShape": {}}}}}, {"name": "Transformer-0-MultiHeadSelfAttention/Reshape/shape/3", "op": "Const", "attr": {"dtype": {"type": "DT_INT32"}, "value": {"tensor": {"dtype": "DT_INT32", "tensorShape": {}}}}}, {"name": "Transformer-0-MultiHeadSelfAttention/einsum/transpose/perm", "op": "Const", "attr": {"dtype": {"type": "DT_INT32"}, "value": {"tensor": {"dtype": "DT_INT32", "tensorShape": {"dim": [{"size": "4"}]}}}}}, {"name": "Transformer-0-MultiHeadSelfAttention/einsum/strided_slice_1/stack", "op": "Const", "attr": {"dtype": {"type": "DT_INT32"}, "value": {"tensor": {"dtype": "DT_INT32", "tensorShape": {"dim": [{"size": "1"}]}}}}}, {"name": "Transformer-0-MultiHeadSelfAttention/einsum/strided_slice_1/stack_1", "op": "Const", "attr": {"dtype": {"type": "DT_INT32"}, "value": {"tensor": {"dtype": "DT_INT32", "tensorShape": {"dim": [{"size": "1"}]}}}}}, {"name": "Transformer-0-MultiHeadSelfAttention/einsum/strided_slice_1/stack_2", "op": "Const", "attr": {"value": {"tensor": {"dtype": "DT_INT32", "tensorShape": {"dim": [{"size": "1"}]}}}, "dtype": {"type": "DT_INT32"}}}, {"name": "Transformer-0-MultiHeadSelfAttention/dense_2/Reshape/shape", "op": "Const", "attr": {"dtype": {"type": "DT_INT32"}, "value": {"tensor": {"dtype": "DT_INT32", "tensorShape": {"dim": [{"size": "2"}]}}}}}, {"name": "Transformer-0-MultiHeadSelfAttention/dense_2/Reshape_1", "op": "Const", "attr": {"dtype": {"type": "DT_FLOAT"}, "value": {"tensor": {"dtype": "DT_FLOAT", "tensorShape": {"dim": [{"size": "256"}, {"size": "256"}]}}}}}, {"name": "Transformer-0-MultiHeadSelfAttention/dense_2/Reshape_2/shape/2", "op": "Const", "attr": {"value": {"tensor": {"dtype": "DT_INT32", "tensorShape": {}}}, "dtype": {"type": "DT_INT32"}}}, {"name": "Transformer-0-MultiHeadSelfAttention/dense_2/Reshape_3", "op": "Const", "attr": {"value": {"tensor": {"dtype": "DT_FLOAT", "tensorShape": {"dim": [{"size": "1"}, {"size": "1"}, {"size": "256"}]}}}, "dtype": {"type": "DT_FLOAT"}}}, {"name": "Transformer-0-MultiHeadSelfAttention/Reshape_1/shape/0", "op": "Const", "attr": {"dtype": {"type": "DT_INT32"}, "value": {"tensor": {"dtype": "DT_INT32", "tensorShape": {}}}}}, {"name": "Embedding-Norm/gamma", "op": "Const", "attr": {"value": {"tensor": {"dtype": "DT_FLOAT", "tensorShape": {"dim": [{"size": "256"}]}}}, "dtype": {"type": "DT_FLOAT"}}}, {"name": "Embedding-Position/embeddings", "op": "Const", "attr": {"dtype": {"type": "DT_FLOAT"}, "value": {"tensor": {"dtype": "DT_FLOAT", "tensorShape": {"dim": [{"size": "512"}, {"size": "256"}]}}}}}, {"name": "Embedding-Position/strided_slice_3/stack", "op": "Const", "attr": {"dtype": {"type": "DT_INT32"}, "value": {"tensor": {"dtype": "DT_INT32", "tensorShape": {"dim": [{"size": "2"}]}}}}}, {"name": "Embedding-Position/strided_slice_3/stack_1/0", "op": "Const", "attr": {"value": {"tensor": {"dtype": "DT_INT32", "tensorShape": {}}}, "dtype": {"type": "DT_INT32"}}}, {"name": "Embedding-Token/embeddings", "op": "Const", "attr": {"value": {"tensor": {"dtype": "DT_FLOAT", "tensorShape": {"dim": [{"size": "99"}, {"size": "256"}]}}}, "dtype": {"type": "DT_FLOAT"}}}, {"name": "Embedding-Token/embedding_lookup/axis", "op": "Const", "attr": {"value": {"tensor": {"dtype": "DT_INT32", "tensorShape": {}}}, "dtype": {"type": "DT_INT32"}}}, {"name": "Embedding-Segment/embeddings", "op": "Const", "attr": {"value": {"tensor": {"dtype": "DT_FLOAT", "tensorShape": {"dim": [{"size": "2"}, {"size": "256"}]}}}, "dtype": {"type": "DT_FLOAT"}}}, {"name": "Input-Segment", "op": "Placeholder", "attr": {"dtype": {"type": "DT_FLOAT"}, "shape": {"shape": {"dim": [{"size": "-1"}, {"size": "-1"}]}}}}, {"name": "Embedding-Segment/embedding_lookup/axis", "op": "Const", "attr": {"value": {"tensor": {"dtype": "DT_INT32", "tensorShape": {}}}, "dtype": {"type": "DT_INT32"}}}, {"name": "Embedding-Position/strided_slice_1/stack", "op": "Const", "attr": {"dtype": {"type": "DT_INT32"}, "value": {"tensor": {"dtype": "DT_INT32", "tensorShape": {"dim": [{"size": "1"}]}}}}}, {"name": "Embedding-Position/strided_slice_1/stack_1", "op": "Const", "attr": {"dtype": {"type": "DT_INT32"}, "value": {"tensor": {"dtype": "DT_INT32", "tensorShape": {"dim": [{"size": "1"}]}}}}}, {"name": "Embedding-Position/strided_slice_1/stack_2", "op": "Const", "attr": {"value": {"tensor": {"dtype": "DT_INT32", "tensorShape": {"dim": [{"size": "1"}]}}}, "dtype": {"type": "DT_INT32"}}}, {"name": "Embedding-Position/strided_slice_3/stack_2", "op": "Const", "attr": {"dtype": {"type": "DT_INT32"}, "value": {"tensor": {"dtype": "DT_INT32", "tensorShape": {"dim": [{"size": "2"}]}}}}}, {"name": "Embedding-Norm/Mean/reduction_indices", "op": "Const", "attr": {"dtype": {"type": "DT_INT32"}, "value": {"tensor": {"dtype": "DT_INT32", "tensorShape": {}}}}}, {"name": "Embedding-Norm/Mean_1/reduction_indices", "op": "Const", "attr": {"value": {"tensor": {"dtype": "DT_INT32", "tensorShape": {}}}, "dtype": {"type": "DT_INT32"}}}, {"name": "Embedding-Norm/add/y", "op": "Const", "attr": {"dtype": {"type": "DT_FLOAT"}, "value": {"tensor": {"dtype": "DT_FLOAT", "tensorShape": {}}}}}, {"name": "Embedding-Norm/Const_3", "op": "Const", "attr": {"value": {"tensor": {"dtype": "DT_FLOAT", "tensorShape": {}}}, "dtype": {"type": "DT_FLOAT"}}}, {"name": "Embedding-Norm/Const_2", "op": "Const", "attr": {"dtype": {"type": "DT_FLOAT"}, "value": {"tensor": {"dtype": "DT_FLOAT", "tensorShape": {}}}}}, {"name": "Embedding-Norm/beta", "op": "Const", "attr": {"dtype": {"type": "DT_FLOAT"}, "value": {"tensor": {"dtype": "DT_FLOAT", "tensorShape": {"dim": [{"size": "256"}]}}}}}, {"name": "Transformer-0-MultiHeadSelfAttention/strided_slice_1/stack", "op": "Const", "attr": {"value": {"tensor": {"dtype": "DT_INT32", "tensorShape": {"dim": [{"size": "1"}]}}}, "dtype": {"type": "DT_INT32"}}}, {"name": "Transformer-0-MultiHeadSelfAttention/strided_slice_1/stack_1", "op": "Const", "attr": {"value": {"tensor": {"dtype": "DT_INT32", "tensorShape": {"dim": [{"size": "1"}]}}}, "dtype": {"type": "DT_INT32"}}}, {"name": "Transformer-0-MultiHeadSelfAttention/strided_slice_1/stack_2", "op": "Const", "attr": {"dtype": {"type": "DT_INT32"}, "value": {"tensor": {"dtype": "DT_INT32", "tensorShape": {"dim": [{"size": "1"}]}}}}}, {"name": "Transformer-0-MultiHeadSelfAttention/Reshape_1/shape/2", "op": "Const", "attr": {"dtype": {"type": "DT_INT32"}, "value": {"tensor": {"dtype": "DT_INT32", "tensorShape": {}}}}}, {"name": "Transformer-0-MultiHeadSelfAttention/Reshape_1/shape/3", "op": "Const", "attr": {"dtype": {"type": "DT_INT32"}, "value": {"tensor": {"dtype": "DT_INT32", "tensorShape": {}}}}}, {"name": "Transformer-0-MultiHeadSelfAttention/einsum/transpose_1/perm", "op": "Const", "attr": {"value": {"tensor": {"dtype": "DT_INT32", "tensorShape": {"dim": [{"size": "4"}]}}}, "dtype": {"type": "DT_INT32"}}}, {"name": "Transformer-0-MultiHeadSelfAttention/einsum/strided_slice_3/stack", "op": "Const", "attr": {"value": {"tensor": {"dtype": "DT_INT32", "tensorShape": {"dim": [{"size": "1"}]}}}, "dtype": {"type": "DT_INT32"}}}, {"name": "Transformer-0-MultiHeadSelfAttention/einsum/strided_slice_3/stack_1", "op": "Const", "attr": {"dtype": {"type": "DT_INT32"}, "value": {"tensor": {"dtype": "DT_INT32", "tensorShape": {"dim": [{"size": "1"}]}}}}}, {"name": "Transformer-0-MultiHeadSelfAttention/einsum/strided_slice_3/stack_2", "op": "Const", "attr": {"dtype": {"type": "DT_INT32"}, "value": {"tensor": {"dtype": "DT_INT32", "tensorShape": {"dim": [{"size": "1"}]}}}}}, {"name": "ConstantFolding/Transformer-0-MultiHeadSelfAttention/truediv_recip", "op": "Const", "attr": {"dtype": {"type": "DT_FLOAT"}, "value": {"tensor": {"dtype": "DT_FLOAT", "tensorShape": {}}}}}, {"name": "Transformer-0-MultiHeadSelfAttention/mul_1/x", "op": "Const", "attr": {"value": {"tensor": {"dtype": "DT_FLOAT", "tensorShape": {}}}, "dtype": {"type": "DT_FLOAT"}}}, {"name": "Transformer-0-MultiHeadSelfAttention/sub/x", "op": "Const", "attr": {"dtype": {"type": "DT_FLOAT"}, "value": {"tensor": {"dtype": "DT_FLOAT", "tensorShape": {}}}}}, {"name": "Transformer-0-MultiHeadSelfAttention/ExpandDims/dim", "op": "Const", "attr": {"value": {"tensor": {"dtype": "DT_INT32", "tensorShape": {}}}, "dtype": {"type": "DT_INT32"}}}, {"name": "Transformer-0-MultiHeadSelfAttention/ExpandDims_1/dim", "op": "Const", "attr": {"dtype": {"type": "DT_INT32"}, "value": {"tensor": {"dtype": "DT_INT32", "tensorShape": {}}}}}, {"name": "Transformer-0-MultiHeadSelfAttention/einsum_1/strided_slice_1/stack", "op": "Const", "attr": {"dtype": {"type": "DT_INT32"}, "value": {"tensor": {"dtype": "DT_INT32", "tensorShape": {"dim": [{"size": "1"}]}}}}}, {"name": "Transformer-0-MultiHeadSelfAttention/einsum_1/strided_slice_1/stack_1", "op": "Const", "attr": {"value": {"tensor": {"dtype": "DT_INT32", "tensorShape": {"dim": [{"size": "1"}]}}}, "dtype": {"type": "DT_INT32"}}}, {"name": "Transformer-0-MultiHeadSelfAttention/einsum_1/strided_slice_1/stack_2", "op": "Const", "attr": {"dtype": {"type": "DT_INT32"}, "value": {"tensor": {"dtype": "DT_INT32", "tensorShape": {"dim": [{"size": "1"}]}}}}}, {"name": "Transformer-0-MultiHeadSelfAttention/einsum_1/Reshape_2/shape/3", "op": "Const", "attr": {"value": {"tensor": {"dtype": "DT_INT32", "tensorShape": {}}}, "dtype": {"type": "DT_INT32"}}}, {"name": "Transformer-0-MultiHeadSelfAttention/einsum_1/transpose_1/perm", "op": "Const", "attr": {"dtype": {"type": "DT_INT32"}, "value": {"tensor": {"dtype": "DT_INT32", "tensorShape": {"dim": [{"size": "4"}]}}}}}, {"name": "Transformer-0-MultiHeadSelfAttention/strided_slice_3/stack", "op": "Const", "attr": {"value": {"tensor": {"dtype": "DT_INT32", "tensorShape": {"dim": [{"size": "1"}]}}}, "dtype": {"type": "DT_INT32"}}}, {"name": "Transformer-0-MultiHeadSelfAttention/strided_slice_3/stack_1", "op": "Const", "attr": {"dtype": {"type": "DT_INT32"}, "value": {"tensor": {"dtype": "DT_INT32", "tensorShape": {"dim": [{"size": "1"}]}}}}}, {"name": "Transformer-0-MultiHeadSelfAttention/strided_slice_3/stack_2", "op": "Const", "attr": {"dtype": {"type": "DT_INT32"}, "value": {"tensor": {"dtype": "DT_INT32", "tensorShape": {"dim": [{"size": "1"}]}}}}}, {"name": "Transformer-0-MultiHeadSelfAttention/Reshape_3/shape/2", "op": "Const", "attr": {"value": {"tensor": {"dtype": "DT_INT32", "tensorShape": {}}}, "dtype": {"type": "DT_INT32"}}}, {"name": "Transformer-0-MultiHeadSelfAttention/dense_4/Reshape_2/shape/2", "op": "Const", "attr": {"value": {"tensor": {"dtype": "DT_INT32", "tensorShape": {}}}, "dtype": {"type": "DT_INT32"}}}, {"name": "Transformer-0-MultiHeadSelfAttention/dense_4/Reshape_3", "op": "Const", "attr": {"value": {"tensor": {"dtype": "DT_FLOAT", "tensorShape": {"dim": [{"size": "1"}, {"size": "1"}, {"size": "256"}]}}}, "dtype": {"type": "DT_FLOAT"}}}, {"name": "Transformer-0-MultiHeadSelfAttention-Norm/Mean/reduction_indices", "op": "Const", "attr": {"dtype": {"type": "DT_INT32"}, "value": {"tensor": {"dtype": "DT_INT32", "tensorShape": {}}}}}, {"name": "Transformer-0-MultiHeadSelfAttention-Norm/Mean_1/reduction_indices", "op": "Const", "attr": {"dtype": {"type": "DT_INT32"}, "value": {"tensor": {"dtype": "DT_INT32", "tensorShape": {}}}}}, {"name": "Transformer-0-MultiHeadSelfAttention-Norm/add/y", "op": "Const", "attr": {"value": {"tensor": {"dtype": "DT_FLOAT", "tensorShape": {}}}, "dtype": {"type": "DT_FLOAT"}}}, {"name": "Transformer-0-MultiHeadSelfAttention-Norm/Const_3", "op": "Const", "attr": {"value": {"tensor": {"dtype": "DT_FLOAT", "tensorShape": {}}}, "dtype": {"type": "DT_FLOAT"}}}, {"name": "Transformer-0-MultiHeadSelfAttention-Norm/Const_2", "op": "Const", "attr": {"dtype": {"type": "DT_FLOAT"}, "value": {"tensor": {"dtype": "DT_FLOAT", "tensorShape": {}}}}}, {"name": "Transformer-0-MultiHeadSelfAttention-Norm/beta", "op": "Const", "attr": {"value": {"tensor": {"dtype": "DT_FLOAT", "tensorShape": {"dim": [{"size": "256"}]}}}, "dtype": {"type": "DT_FLOAT"}}}, {"name": "Transformer-0-FeedForward/dense_5/Reshape_2/shape/2", "op": "Const", "attr": {"dtype": {"type": "DT_INT32"}, "value": {"tensor": {"dtype": "DT_INT32", "tensorShape": {}}}}}, {"name": "Transformer-0-FeedForward/dense_5/Reshape_3", "op": "Const", "attr": {"dtype": {"type": "DT_FLOAT"}, "value": {"tensor": {"dtype": "DT_FLOAT", "tensorShape": {"dim": [{"size": "1"}, {"size": "1"}, {"size": "512"}]}}}}}, {"name": "ConstantFolding/Transformer-0-FeedForward/dense_5/truediv_recip", "op": "Const", "attr": {"value": {"tensor": {"dtype": "DT_FLOAT", "tensorShape": {}}}, "dtype": {"type": "DT_FLOAT"}}}, {"name": "Transformer-0-FeedForward/dense_6/Reshape_2/shape/2", "op": "Const", "attr": {"value": {"tensor": {"dtype": "DT_INT32", "tensorShape": {}}}, "dtype": {"type": "DT_INT32"}}}, {"name": "Transformer-0-FeedForward/dense_6/Reshape_3", "op": "Const", "attr": {"value": {"tensor": {"dtype": "DT_FLOAT", "tensorShape": {"dim": [{"size": "1"}, {"size": "1"}, {"size": "256"}]}}}, "dtype": {"type": "DT_FLOAT"}}}, {"name": "Transformer-0-FeedForward-Norm/Mean/reduction_indices", "op": "Const", "attr": {"value": {"tensor": {"dtype": "DT_INT32", "tensorShape": {}}}, "dtype": {"type": "DT_INT32"}}}, {"name": "Transformer-0-FeedForward-Norm/Mean_1/reduction_indices", "op": "Const", "attr": {"dtype": {"type": "DT_INT32"}, "value": {"tensor": {"dtype": "DT_INT32", "tensorShape": {}}}}}, {"name": "Transformer-0-FeedForward-Norm/add/y", "op": "Const", "attr": {"dtype": {"type": "DT_FLOAT"}, "value": {"tensor": {"dtype": "DT_FLOAT", "tensorShape": {}}}}}, {"name": "Transformer-0-FeedForward-Norm/Const_3", "op": "Const", "attr": {"dtype": {"type": "DT_FLOAT"}, "value": {"tensor": {"dtype": "DT_FLOAT", "tensorShape": {}}}}}, {"name": "Transformer-0-FeedForward-Norm/Const_2", "op": "Const", "attr": {"value": {"tensor": {"dtype": "DT_FLOAT", "tensorShape": {}}}, "dtype": {"type": "DT_FLOAT"}}}, {"name": "Transformer-0-FeedForward-Norm/beta", "op": "Const", "attr": {"value": {"tensor": {"dtype": "DT_FLOAT", "tensorShape": {"dim": [{"size": "256"}]}}}, "dtype": {"type": "DT_FLOAT"}}}, {"name": "Transformer-1-MultiHeadSelfAttention/strided_slice_1/stack", "op": "Const", "attr": {"value": {"tensor": {"dtype": "DT_INT32", "tensorShape": {"dim": [{"size": "1"}]}}}, "dtype": {"type": "DT_INT32"}}}, {"name": "Transformer-1-MultiHeadSelfAttention/strided_slice_1/stack_1", "op": "Const", "attr": {"dtype": {"type": "DT_INT32"}, "value": {"tensor": {"dtype": "DT_INT32", "tensorShape": {"dim": [{"size": "1"}]}}}}}, {"name": "Transformer-1-MultiHeadSelfAttention/strided_slice_1/stack_2", "op": "Const", "attr": {"dtype": {"type": "DT_INT32"}, "value": {"tensor": {"dtype": "DT_INT32", "tensorShape": {"dim": [{"size": "1"}]}}}}}, {"name": "Transformer-1-MultiHeadSelfAttention/Reshape_1/shape/2", "op": "Const", "attr": {"value": {"tensor": {"dtype": "DT_INT32", "tensorShape": {}}}, "dtype": {"type": "DT_INT32"}}}, {"name": "Transformer-1-MultiHeadSelfAttention/Reshape_1/shape/3", "op": "Const", "attr": {"dtype": {"type": "DT_INT32"}, "value": {"tensor": {"dtype": "DT_INT32", "tensorShape": {}}}}}, {"name": "Transformer-1-MultiHeadSelfAttention/einsum/transpose_1/perm", "op": "Const", "attr": {"value": {"tensor": {"dtype": "DT_INT32", "tensorShape": {"dim": [{"size": "4"}]}}}, "dtype": {"type": "DT_INT32"}}}, {"name": "Transformer-1-MultiHeadSelfAttention/einsum/strided_slice_3/stack", "op": "Const", "attr": {"dtype": {"type": "DT_INT32"}, "value": {"tensor": {"dtype": "DT_INT32", "tensorShape": {"dim": [{"size": "1"}]}}}}}, {"name": "Transformer-1-MultiHeadSelfAttention/einsum/strided_slice_3/stack_1", "op": "Const", "attr": {"dtype": {"type": "DT_INT32"}, "value": {"tensor": {"dtype": "DT_INT32", "tensorShape": {"dim": [{"size": "1"}]}}}}}, {"name": "Transformer-1-MultiHeadSelfAttention/einsum/strided_slice_3/stack_2", "op": "Const", "attr": {"value": {"tensor": {"dtype": "DT_INT32", "tensorShape": {"dim": [{"size": "1"}]}}}, "dtype": {"type": "DT_INT32"}}}, {"name": "ConstantFolding/Transformer-1-MultiHeadSelfAttention/truediv_recip", "op": "Const", "attr": {"dtype": {"type": "DT_FLOAT"}, "value": {"tensor": {"dtype": "DT_FLOAT", "tensorShape": {}}}}}, {"name": "Transformer-1-MultiHeadSelfAttention/mul_1/x", "op": "Const", "attr": {"dtype": {"type": "DT_FLOAT"}, "value": {"tensor": {"dtype": "DT_FLOAT", "tensorShape": {}}}}}, {"name": "Transformer-1-MultiHeadSelfAttention/sub/x", "op": "Const", "attr": {"value": {"tensor": {"dtype": "DT_FLOAT", "tensorShape": {}}}, "dtype": {"type": "DT_FLOAT"}}}, {"name": "Transformer-1-MultiHeadSelfAttention/ExpandDims/dim", "op": "Const", "attr": {"dtype": {"type": "DT_INT32"}, "value": {"tensor": {"dtype": "DT_INT32", "tensorShape": {}}}}}, {"name": "Transformer-1-MultiHeadSelfAttention/ExpandDims_1/dim", "op": "Const", "attr": {"value": {"tensor": {"dtype": "DT_INT32", "tensorShape": {}}}, "dtype": {"type": "DT_INT32"}}}, {"name": "Transformer-1-MultiHeadSelfAttention/einsum_1/strided_slice_1/stack", "op": "Const", "attr": {"dtype": {"type": "DT_INT32"}, "value": {"tensor": {"dtype": "DT_INT32", "tensorShape": {"dim": [{"size": "1"}]}}}}}, {"name": "Transformer-1-MultiHeadSelfAttention/einsum_1/strided_slice_1/stack_1", "op": "Const", "attr": {"dtype": {"type": "DT_INT32"}, "value": {"tensor": {"dtype": "DT_INT32", "tensorShape": {"dim": [{"size": "1"}]}}}}}, {"name": "Transformer-1-MultiHeadSelfAttention/einsum_1/strided_slice_1/stack_2", "op": "Const", "attr": {"dtype": {"type": "DT_INT32"}, "value": {"tensor": {"dtype": "DT_INT32", "tensorShape": {"dim": [{"size": "1"}]}}}}}, {"name": "Transformer-1-MultiHeadSelfAttention/einsum_1/Reshape_2/shape/3", "op": "Const", "attr": {"dtype": {"type": "DT_INT32"}, "value": {"tensor": {"dtype": "DT_INT32", "tensorShape": {}}}}}, {"name": "Transformer-1-MultiHeadSelfAttention/einsum_1/transpose_1/perm", "op": "Const", "attr": {"dtype": {"type": "DT_INT32"}, "value": {"tensor": {"dtype": "DT_INT32", "tensorShape": {"dim": [{"size": "4"}]}}}}}, {"name": "Transformer-1-MultiHeadSelfAttention/strided_slice_3/stack", "op": "Const", "attr": {"value": {"tensor": {"dtype": "DT_INT32", "tensorShape": {"dim": [{"size": "1"}]}}}, "dtype": {"type": "DT_INT32"}}}, {"name": "Transformer-1-MultiHeadSelfAttention/strided_slice_3/stack_1", "op": "Const", "attr": {"value": {"tensor": {"dtype": "DT_INT32", "tensorShape": {"dim": [{"size": "1"}]}}}, "dtype": {"type": "DT_INT32"}}}, {"name": "Transformer-1-MultiHeadSelfAttention/strided_slice_3/stack_2", "op": "Const", "attr": {"dtype": {"type": "DT_INT32"}, "value": {"tensor": {"dtype": "DT_INT32", "tensorShape": {"dim": [{"size": "1"}]}}}}}, {"name": "Transformer-1-MultiHeadSelfAttention/Reshape_3/shape/2", "op": "Const", "attr": {"value": {"tensor": {"dtype": "DT_INT32", "tensorShape": {}}}, "dtype": {"type": "DT_INT32"}}}, {"name": "Transformer-1-MultiHeadSelfAttention/dense_10/Reshape_2/shape/2", "op": "Const", "attr": {"value": {"tensor": {"dtype": "DT_INT32", "tensorShape": {}}}, "dtype": {"type": "DT_INT32"}}}, {"name": "Transformer-1-MultiHeadSelfAttention/dense_10/Reshape_3", "op": "Const", "attr": {"value": {"tensor": {"dtype": "DT_FLOAT", "tensorShape": {"dim": [{"size": "1"}, {"size": "1"}, {"size": "256"}]}}}, "dtype": {"type": "DT_FLOAT"}}}, {"name": "Transformer-1-MultiHeadSelfAttention-Norm/Mean/reduction_indices", "op": "Const", "attr": {"dtype": {"type": "DT_INT32"}, "value": {"tensor": {"dtype": "DT_INT32", "tensorShape": {}}}}}, {"name": "Transformer-1-MultiHeadSelfAttention-Norm/Mean_1/reduction_indices", "op": "Const", "attr": {"dtype": {"type": "DT_INT32"}, "value": {"tensor": {"dtype": "DT_INT32", "tensorShape": {}}}}}, {"name": "Transformer-1-MultiHeadSelfAttention-Norm/add/y", "op": "Const", "attr": {"value": {"tensor": {"dtype": "DT_FLOAT", "tensorShape": {}}}, "dtype": {"type": "DT_FLOAT"}}}, {"name": "Transformer-1-MultiHeadSelfAttention-Norm/Const_3", "op": "Const", "attr": {"value": {"tensor": {"dtype": "DT_FLOAT", "tensorShape": {}}}, "dtype": {"type": "DT_FLOAT"}}}, {"name": "Transformer-1-MultiHeadSelfAttention-Norm/Const_2", "op": "Const", "attr": {"value": {"tensor": {"dtype": "DT_FLOAT", "tensorShape": {}}}, "dtype": {"type": "DT_FLOAT"}}}, {"name": "Transformer-1-MultiHeadSelfAttention-Norm/beta", "op": "Const", "attr": {"dtype": {"type": "DT_FLOAT"}, "value": {"tensor": {"dtype": "DT_FLOAT", "tensorShape": {"dim": [{"size": "256"}]}}}}}, {"name": "Transformer-1-FeedForward/dense_11/Reshape_2/shape/2", "op": "Const", "attr": {"dtype": {"type": "DT_INT32"}, "value": {"tensor": {"dtype": "DT_INT32", "tensorShape": {}}}}}, {"name": "Transformer-1-FeedForward/dense_11/Reshape_3", "op": "Const", "attr": {"dtype": {"type": "DT_FLOAT"}, "value": {"tensor": {"dtype": "DT_FLOAT", "tensorShape": {"dim": [{"size": "1"}, {"size": "1"}, {"size": "512"}]}}}}}, {"name": "ConstantFolding/Transformer-1-FeedForward/dense_11/truediv_recip", "op": "Const", "attr": {"value": {"tensor": {"dtype": "DT_FLOAT", "tensorShape": {}}}, "dtype": {"type": "DT_FLOAT"}}}, {"name": "Transformer-1-FeedForward/dense_12/Reshape_2/shape/2", "op": "Const", "attr": {"dtype": {"type": "DT_INT32"}, "value": {"tensor": {"dtype": "DT_INT32", "tensorShape": {}}}}}, {"name": "Transformer-1-FeedForward/dense_12/Reshape_3", "op": "Const", "attr": {"value": {"tensor": {"dtype": "DT_FLOAT", "tensorShape": {"dim": [{"size": "1"}, {"size": "1"}, {"size": "256"}]}}}, "dtype": {"type": "DT_FLOAT"}}}, {"name": "Transformer-1-FeedForward-Norm/Mean/reduction_indices", "op": "Const", "attr": {"dtype": {"type": "DT_INT32"}, "value": {"tensor": {"dtype": "DT_INT32", "tensorShape": {}}}}}, {"name": "Transformer-1-FeedForward-Norm/Mean_1/reduction_indices", "op": "Const", "attr": {"dtype": {"type": "DT_INT32"}, "value": {"tensor": {"dtype": "DT_INT32", "tensorShape": {}}}}}, {"name": "Transformer-1-FeedForward-Norm/add/y", "op": "Const", "attr": {"value": {"tensor": {"dtype": "DT_FLOAT", "tensorShape": {}}}, "dtype": {"type": "DT_FLOAT"}}}, {"name": "Transformer-1-FeedForward-Norm/Const_3", "op": "Const", "attr": {"dtype": {"type": "DT_FLOAT"}, "value": {"tensor": {"dtype": "DT_FLOAT", "tensorShape": {}}}}}, {"name": "Transformer-1-FeedForward-Norm/Const_2", "op": "Const", "attr": {"value": {"tensor": {"dtype": "DT_FLOAT", "tensorShape": {}}}, "dtype": {"type": "DT_FLOAT"}}}, {"name": "Transformer-1-FeedForward-Norm/beta", "op": "Const", "attr": {"dtype": {"type": "DT_FLOAT"}, "value": {"tensor": {"dtype": "DT_FLOAT", "tensorShape": {"dim": [{"size": "256"}]}}}}}, {"name": "Transformer-2-MultiHeadSelfAttention/strided_slice_1/stack", "op": "Const", "attr": {"value": {"tensor": {"dtype": "DT_INT32", "tensorShape": {"dim": [{"size": "1"}]}}}, "dtype": {"type": "DT_INT32"}}}, {"name": "Transformer-2-MultiHeadSelfAttention/strided_slice_1/stack_1", "op": "Const", "attr": {"dtype": {"type": "DT_INT32"}, "value": {"tensor": {"dtype": "DT_INT32", "tensorShape": {"dim": [{"size": "1"}]}}}}}, {"name": "Transformer-2-MultiHeadSelfAttention/strided_slice_1/stack_2", "op": "Const", "attr": {"value": {"tensor": {"dtype": "DT_INT32", "tensorShape": {"dim": [{"size": "1"}]}}}, "dtype": {"type": "DT_INT32"}}}, {"name": "Transformer-2-MultiHeadSelfAttention/Reshape_1/shape/2", "op": "Const", "attr": {"value": {"tensor": {"dtype": "DT_INT32", "tensorShape": {}}}, "dtype": {"type": "DT_INT32"}}}, {"name": "Transformer-2-MultiHeadSelfAttention/Reshape_1/shape/3", "op": "Const", "attr": {"value": {"tensor": {"dtype": "DT_INT32", "tensorShape": {}}}, "dtype": {"type": "DT_INT32"}}}, {"name": "Transformer-2-MultiHeadSelfAttention/einsum/transpose_1/perm", "op": "Const", "attr": {"value": {"tensor": {"dtype": "DT_INT32", "tensorShape": {"dim": [{"size": "4"}]}}}, "dtype": {"type": "DT_INT32"}}}, {"name": "Transformer-2-MultiHeadSelfAttention/einsum/strided_slice_3/stack", "op": "Const", "attr": {"value": {"tensor": {"dtype": "DT_INT32", "tensorShape": {"dim": [{"size": "1"}]}}}, "dtype": {"type": "DT_INT32"}}}, {"name": "Transformer-2-MultiHeadSelfAttention/einsum/strided_slice_3/stack_1", "op": "Const", "attr": {"dtype": {"type": "DT_INT32"}, "value": {"tensor": {"dtype": "DT_INT32", "tensorShape": {"dim": [{"size": "1"}]}}}}}, {"name": "Transformer-2-MultiHeadSelfAttention/einsum/strided_slice_3/stack_2", "op": "Const", "attr": {"dtype": {"type": "DT_INT32"}, "value": {"tensor": {"dtype": "DT_INT32", "tensorShape": {"dim": [{"size": "1"}]}}}}}, {"name": "ConstantFolding/Transformer-2-MultiHeadSelfAttention/truediv_recip", "op": "Const", "attr": {"dtype": {"type": "DT_FLOAT"}, "value": {"tensor": {"dtype": "DT_FLOAT", "tensorShape": {}}}}}, {"name": "Transformer-2-MultiHeadSelfAttention/mul_1/x", "op": "Const", "attr": {"dtype": {"type": "DT_FLOAT"}, "value": {"tensor": {"dtype": "DT_FLOAT", "tensorShape": {}}}}}, {"name": "Transformer-2-MultiHeadSelfAttention/sub/x", "op": "Const", "attr": {"dtype": {"type": "DT_FLOAT"}, "value": {"tensor": {"dtype": "DT_FLOAT", "tensorShape": {}}}}}, {"name": "Transformer-2-MultiHeadSelfAttention/ExpandDims/dim", "op": "Const", "attr": {"value": {"tensor": {"dtype": "DT_INT32", "tensorShape": {}}}, "dtype": {"type": "DT_INT32"}}}, {"name": "Transformer-2-MultiHeadSelfAttention/ExpandDims_1/dim", "op": "Const", "attr": {"value": {"tensor": {"dtype": "DT_INT32", "tensorShape": {}}}, "dtype": {"type": "DT_INT32"}}}, {"name": "Transformer-2-MultiHeadSelfAttention/einsum_1/strided_slice_1/stack", "op": "Const", "attr": {"value": {"tensor": {"dtype": "DT_INT32", "tensorShape": {"dim": [{"size": "1"}]}}}, "dtype": {"type": "DT_INT32"}}}, {"name": "Transformer-2-MultiHeadSelfAttention/einsum_1/strided_slice_1/stack_1", "op": "Const", "attr": {"value": {"tensor": {"dtype": "DT_INT32", "tensorShape": {"dim": [{"size": "1"}]}}}, "dtype": {"type": "DT_INT32"}}}, {"name": "Transformer-2-MultiHeadSelfAttention/einsum_1/strided_slice_1/stack_2", "op": "Const", "attr": {"dtype": {"type": "DT_INT32"}, "value": {"tensor": {"dtype": "DT_INT32", "tensorShape": {"dim": [{"size": "1"}]}}}}}, {"name": "Transformer-2-MultiHeadSelfAttention/einsum_1/Reshape_2/shape/3", "op": "Const", "attr": {"value": {"tensor": {"dtype": "DT_INT32", "tensorShape": {}}}, "dtype": {"type": "DT_INT32"}}}, {"name": "Transformer-2-MultiHeadSelfAttention/einsum_1/transpose_1/perm", "op": "Const", "attr": {"value": {"tensor": {"dtype": "DT_INT32", "tensorShape": {"dim": [{"size": "4"}]}}}, "dtype": {"type": "DT_INT32"}}}, {"name": "Transformer-2-MultiHeadSelfAttention/strided_slice_3/stack", "op": "Const", "attr": {"value": {"tensor": {"dtype": "DT_INT32", "tensorShape": {"dim": [{"size": "1"}]}}}, "dtype": {"type": "DT_INT32"}}}, {"name": "Transformer-2-MultiHeadSelfAttention/strided_slice_3/stack_1", "op": "Const", "attr": {"value": {"tensor": {"dtype": "DT_INT32", "tensorShape": {"dim": [{"size": "1"}]}}}, "dtype": {"type": "DT_INT32"}}}, {"name": "Transformer-2-MultiHeadSelfAttention/strided_slice_3/stack_2", "op": "Const", "attr": {"dtype": {"type": "DT_INT32"}, "value": {"tensor": {"dtype": "DT_INT32", "tensorShape": {"dim": [{"size": "1"}]}}}}}, {"name": "Transformer-2-MultiHeadSelfAttention/Reshape_3/shape/2", "op": "Const", "attr": {"value": {"tensor": {"dtype": "DT_INT32", "tensorShape": {}}}, "dtype": {"type": "DT_INT32"}}}, {"name": "Transformer-2-MultiHeadSelfAttention/dense_16/Reshape_2/shape/2", "op": "Const", "attr": {"value": {"tensor": {"dtype": "DT_INT32", "tensorShape": {}}}, "dtype": {"type": "DT_INT32"}}}, {"name": "Transformer-2-MultiHeadSelfAttention/dense_16/Reshape_3", "op": "Const", "attr": {"dtype": {"type": "DT_FLOAT"}, "value": {"tensor": {"dtype": "DT_FLOAT", "tensorShape": {"dim": [{"size": "1"}, {"size": "1"}, {"size": "256"}]}}}}}, {"name": "Transformer-2-MultiHeadSelfAttention-Norm/Mean/reduction_indices", "op": "Const", "attr": {"value": {"tensor": {"dtype": "DT_INT32", "tensorShape": {}}}, "dtype": {"type": "DT_INT32"}}}, {"name": "Transformer-2-MultiHeadSelfAttention-Norm/Mean_1/reduction_indices", "op": "Const", "attr": {"dtype": {"type": "DT_INT32"}, "value": {"tensor": {"dtype": "DT_INT32", "tensorShape": {}}}}}, {"name": "Transformer-2-MultiHeadSelfAttention-Norm/add/y", "op": "Const", "attr": {"value": {"tensor": {"dtype": "DT_FLOAT", "tensorShape": {}}}, "dtype": {"type": "DT_FLOAT"}}}, {"name": "Transformer-2-MultiHeadSelfAttention-Norm/Const_3", "op": "Const", "attr": {"dtype": {"type": "DT_FLOAT"}, "value": {"tensor": {"dtype": "DT_FLOAT", "tensorShape": {}}}}}, {"name": "Transformer-2-MultiHeadSelfAttention-Norm/Const_2", "op": "Const", "attr": {"value": {"tensor": {"dtype": "DT_FLOAT", "tensorShape": {}}}, "dtype": {"type": "DT_FLOAT"}}}, {"name": "Transformer-2-MultiHeadSelfAttention-Norm/beta", "op": "Const", "attr": {"dtype": {"type": "DT_FLOAT"}, "value": {"tensor": {"dtype": "DT_FLOAT", "tensorShape": {"dim": [{"size": "256"}]}}}}}, {"name": "Transformer-2-FeedForward/dense_17/Reshape_2/shape/2", "op": "Const", "attr": {"dtype": {"type": "DT_INT32"}, "value": {"tensor": {"dtype": "DT_INT32", "tensorShape": {}}}}}, {"name": "Transformer-2-FeedForward/dense_17/Reshape_3", "op": "Const", "attr": {"value": {"tensor": {"dtype": "DT_FLOAT", "tensorShape": {"dim": [{"size": "1"}, {"size": "1"}, {"size": "512"}]}}}, "dtype": {"type": "DT_FLOAT"}}}, {"name": "ConstantFolding/Transformer-2-FeedForward/dense_17/truediv_recip", "op": "Const", "attr": {"dtype": {"type": "DT_FLOAT"}, "value": {"tensor": {"dtype": "DT_FLOAT", "tensorShape": {}}}}}, {"name": "Transformer-2-FeedForward/dense_18/Reshape_2/shape/2", "op": "Const", "attr": {"dtype": {"type": "DT_INT32"}, "value": {"tensor": {"dtype": "DT_INT32", "tensorShape": {}}}}}, {"name": "Transformer-2-FeedForward/dense_18/Reshape_3", "op": "Const", "attr": {"dtype": {"type": "DT_FLOAT"}, "value": {"tensor": {"dtype": "DT_FLOAT", "tensorShape": {"dim": [{"size": "1"}, {"size": "1"}, {"size": "256"}]}}}}}, {"name": "Transformer-2-FeedForward-Norm/Mean/reduction_indices", "op": "Const", "attr": {"value": {"tensor": {"dtype": "DT_INT32", "tensorShape": {}}}, "dtype": {"type": "DT_INT32"}}}, {"name": "Transformer-2-FeedForward-Norm/Mean_1/reduction_indices", "op": "Const", "attr": {"value": {"tensor": {"dtype": "DT_INT32", "tensorShape": {}}}, "dtype": {"type": "DT_INT32"}}}, {"name": "Transformer-2-FeedForward-Norm/add/y", "op": "Const", "attr": {"dtype": {"type": "DT_FLOAT"}, "value": {"tensor": {"dtype": "DT_FLOAT", "tensorShape": {}}}}}, {"name": "Transformer-2-FeedForward-Norm/Const_3", "op": "Const", "attr": {"value": {"tensor": {"dtype": "DT_FLOAT", "tensorShape": {}}}, "dtype": {"type": "DT_FLOAT"}}}, {"name": "Transformer-2-FeedForward-Norm/Const_2", "op": "Const", "attr": {"value": {"tensor": {"dtype": "DT_FLOAT", "tensorShape": {}}}, "dtype": {"type": "DT_FLOAT"}}}, {"name": "Transformer-2-FeedForward-Norm/beta", "op": "Const", "attr": {"dtype": {"type": "DT_FLOAT"}, "value": {"tensor": {"dtype": "DT_FLOAT", "tensorShape": {"dim": [{"size": "256"}]}}}}}, {"name": "Transformer-3-MultiHeadSelfAttention/strided_slice_1/stack", "op": "Const", "attr": {"dtype": {"type": "DT_INT32"}, "value": {"tensor": {"dtype": "DT_INT32", "tensorShape": {"dim": [{"size": "1"}]}}}}}, {"name": "Transformer-3-MultiHeadSelfAttention/strided_slice_1/stack_1", "op": "Const", "attr": {"dtype": {"type": "DT_INT32"}, "value": {"tensor": {"dtype": "DT_INT32", "tensorShape": {"dim": [{"size": "1"}]}}}}}, {"name": "Transformer-3-MultiHeadSelfAttention/strided_slice_1/stack_2", "op": "Const", "attr": {"value": {"tensor": {"dtype": "DT_INT32", "tensorShape": {"dim": [{"size": "1"}]}}}, "dtype": {"type": "DT_INT32"}}}, {"name": "Transformer-3-MultiHeadSelfAttention/Reshape_1/shape/2", "op": "Const", "attr": {"dtype": {"type": "DT_INT32"}, "value": {"tensor": {"dtype": "DT_INT32", "tensorShape": {}}}}}, {"name": "Transformer-3-MultiHeadSelfAttention/Reshape_1/shape/3", "op": "Const", "attr": {"dtype": {"type": "DT_INT32"}, "value": {"tensor": {"dtype": "DT_INT32", "tensorShape": {}}}}}, {"name": "Transformer-3-MultiHeadSelfAttention/einsum/transpose_1/perm", "op": "Const", "attr": {"dtype": {"type": "DT_INT32"}, "value": {"tensor": {"dtype": "DT_INT32", "tensorShape": {"dim": [{"size": "4"}]}}}}}, {"name": "Transformer-3-MultiHeadSelfAttention/einsum/strided_slice_3/stack", "op": "Const", "attr": {"value": {"tensor": {"dtype": "DT_INT32", "tensorShape": {"dim": [{"size": "1"}]}}}, "dtype": {"type": "DT_INT32"}}}, {"name": "Transformer-3-MultiHeadSelfAttention/einsum/strided_slice_3/stack_1", "op": "Const", "attr": {"dtype": {"type": "DT_INT32"}, "value": {"tensor": {"dtype": "DT_INT32", "tensorShape": {"dim": [{"size": "1"}]}}}}}, {"name": "Transformer-3-MultiHeadSelfAttention/einsum/strided_slice_3/stack_2", "op": "Const", "attr": {"value": {"tensor": {"dtype": "DT_INT32", "tensorShape": {"dim": [{"size": "1"}]}}}, "dtype": {"type": "DT_INT32"}}}, {"name": "ConstantFolding/Transformer-3-MultiHeadSelfAttention/truediv_recip", "op": "Const", "attr": {"value": {"tensor": {"dtype": "DT_FLOAT", "tensorShape": {}}}, "dtype": {"type": "DT_FLOAT"}}}, {"name": "Transformer-3-MultiHeadSelfAttention/mul_1/x", "op": "Const", "attr": {"dtype": {"type": "DT_FLOAT"}, "value": {"tensor": {"dtype": "DT_FLOAT", "tensorShape": {}}}}}, {"name": "Transformer-3-MultiHeadSelfAttention/sub/x", "op": "Const", "attr": {"value": {"tensor": {"dtype": "DT_FLOAT", "tensorShape": {}}}, "dtype": {"type": "DT_FLOAT"}}}, {"name": "Transformer-2-FeedForward-Add/ExpandDims/dim", "op": "Const", "attr": {"dtype": {"type": "DT_INT32"}, "value": {"tensor": {"dtype": "DT_INT32", "tensorShape": {}}}}}, {"name": "Transformer-2-MultiHeadSelfAttention-Add/ExpandDims/dim", "op": "Const", "attr": {"dtype": {"type": "DT_INT32"}, "value": {"tensor": {"dtype": "DT_INT32", "tensorShape": {}}}}}, {"name": "Transformer-1-FeedForward-Add/ExpandDims/dim", "op": "Const", "attr": {"value": {"tensor": {"dtype": "DT_INT32", "tensorShape": {}}}, "dtype": {"type": "DT_INT32"}}}, {"name": "Transformer-1-MultiHeadSelfAttention-Add/ExpandDims/dim", "op": "Const", "attr": {"dtype": {"type": "DT_INT32"}, "value": {"tensor": {"dtype": "DT_INT32", "tensorShape": {}}}}}, {"name": "Transformer-0-FeedForward-Add/ExpandDims/dim", "op": "Const", "attr": {"dtype": {"type": "DT_INT32"}, "value": {"tensor": {"dtype": "DT_INT32", "tensorShape": {}}}}}, {"name": "Transformer-0-MultiHeadSelfAttention-Add/ExpandDims/dim", "op": "Const", "attr": {"value": {"tensor": {"dtype": "DT_INT32", "tensorShape": {}}}, "dtype": {"type": "DT_INT32"}}}, {"name": "Embedding-Token/strided_slice/stack", "op": "Const", "attr": {"value": {"tensor": {"dtype": "DT_INT32", "tensorShape": {"dim": [{"size": "2"}]}}}, "dtype": {"type": "DT_INT32"}}}, {"name": "Embedding-Token/strided_slice/stack_1", "op": "Const", "attr": {"dtype": {"type": "DT_INT32"}, "value": {"tensor": {"dtype": "DT_INT32", "tensorShape": {"dim": [{"size": "2"}]}}}}}, {"name": "Embedding-Token/strided_slice/stack_2", "op": "Const", "attr": {"value": {"tensor": {"dtype": "DT_INT32", "tensorShape": {"dim": [{"size": "2"}]}}}, "dtype": {"type": "DT_INT32"}}}, {"name": "Embedding-Token/ones_like/Const", "op": "Const", "attr": {"dtype": {"type": "DT_BOOL"}, "value": {"tensor": {"dtype": "DT_BOOL", "tensorShape": {}}}}}, {"name": "Input-Token", "op": "Placeholder", "attr": {"shape": {"shape": {"dim": [{"size": "-1"}, {"size": "-1"}]}}, "dtype": {"type": "DT_FLOAT"}}}, {"name": "Embedding-Token/NotEqual/y", "op": "Const", "attr": {"value": {"tensor": {"dtype": "DT_FLOAT", "tensorShape": {}}}, "dtype": {"type": "DT_FLOAT"}}}, {"name": "Embedding-Token/strided_slice_1/stack", "op": "Const", "attr": {"dtype": {"type": "DT_INT32"}, "value": {"tensor": {"dtype": "DT_INT32", "tensorShape": {"dim": [{"size": "2"}]}}}}}, {"name": "Embedding-Token/strided_slice_1/stack_1", "op": "Const", "attr": {"dtype": {"type": "DT_INT32"}, "value": {"tensor": {"dtype": "DT_INT32", "tensorShape": {"dim": [{"size": "2"}]}}}}}, {"name": "Embedding-Token/strided_slice_1/stack_2", "op": "Const", "attr": {"dtype": {"type": "DT_INT32"}, "value": {"tensor": {"dtype": "DT_INT32", "tensorShape": {"dim": [{"size": "2"}]}}}}}, {"name": "Embedding-Token/concat/axis", "op": "Const", "attr": {"dtype": {"type": "DT_INT32"}, "value": {"tensor": {"dtype": "DT_INT32", "tensorShape": {}}}}}, {"name": "Embedding-Token-Segment/ExpandDims/dim", "op": "Const", "attr": {"value": {"tensor": {"dtype": "DT_INT32", "tensorShape": {}}}, "dtype": {"type": "DT_INT32"}}}, {"name": "Embedding-Token-Segment/All/reduction_indices", "op": "Const", "attr": {"value": {"tensor": {"dtype": "DT_INT32", "tensorShape": {}}}, "dtype": {"type": "DT_INT32"}}}, {"name": "Transformer-0-MultiHeadSelfAttention-Add/ExpandDims_1/dim", "op": "Const", "attr": {"value": {"tensor": {"dtype": "DT_INT32", "tensorShape": {}}}, "dtype": {"type": "DT_INT32"}}}, {"name": "Transformer-0-MultiHeadSelfAttention-Add/concat/axis", "op": "Const", "attr": {"value": {"tensor": {"dtype": "DT_INT32", "tensorShape": {}}}, "dtype": {"type": "DT_INT32"}}}, {"name": "Transformer-0-MultiHeadSelfAttention-Add/All/reduction_indices", "op": "Const", "attr": {"dtype": {"type": "DT_INT32"}, "value": {"tensor": {"dtype": "DT_INT32", "tensorShape": {}}}}}, {"name": "Transformer-0-FeedForward-Add/ExpandDims_1/dim", "op": "Const", "attr": {"value": {"tensor": {"dtype": "DT_INT32", "tensorShape": {}}}, "dtype": {"type": "DT_INT32"}}}, {"name": "Transformer-0-FeedForward-Add/concat/axis", "op": "Const", "attr": {"value": {"tensor": {"dtype": "DT_INT32", "tensorShape": {}}}, "dtype": {"type": "DT_INT32"}}}, {"name": "Transformer-0-FeedForward-Add/All/reduction_indices", "op": "Const", "attr": {"value": {"tensor": {"dtype": "DT_INT32", "tensorShape": {}}}, "dtype": {"type": "DT_INT32"}}}, {"name": "Transformer-1-MultiHeadSelfAttention-Add/ExpandDims_1/dim", "op": "Const", "attr": {"value": {"tensor": {"dtype": "DT_INT32", "tensorShape": {}}}, "dtype": {"type": "DT_INT32"}}}, {"name": "Transformer-1-MultiHeadSelfAttention-Add/concat/axis", "op": "Const", "attr": {"dtype": {"type": "DT_INT32"}, "value": {"tensor": {"dtype": "DT_INT32", "tensorShape": {}}}}}, {"name": "Transformer-1-MultiHeadSelfAttention-Add/All/reduction_indices", "op": "Const", "attr": {"value": {"tensor": {"dtype": "DT_INT32", "tensorShape": {}}}, "dtype": {"type": "DT_INT32"}}}, {"name": "Transformer-1-FeedForward-Add/ExpandDims_1/dim", "op": "Const", "attr": {"value": {"tensor": {"dtype": "DT_INT32", "tensorShape": {}}}, "dtype": {"type": "DT_INT32"}}}, {"name": "Transformer-1-FeedForward-Add/concat/axis", "op": "Const", "attr": {"value": {"tensor": {"dtype": "DT_INT32", "tensorShape": {}}}, "dtype": {"type": "DT_INT32"}}}, {"name": "Transformer-1-FeedForward-Add/All/reduction_indices", "op": "Const", "attr": {"value": {"tensor": {"dtype": "DT_INT32", "tensorShape": {}}}, "dtype": {"type": "DT_INT32"}}}, {"name": "Transformer-2-MultiHeadSelfAttention-Add/ExpandDims_1/dim", "op": "Const", "attr": {"dtype": {"type": "DT_INT32"}, "value": {"tensor": {"dtype": "DT_INT32", "tensorShape": {}}}}}, {"name": "Transformer-2-MultiHeadSelfAttention-Add/concat/axis", "op": "Const", "attr": {"value": {"tensor": {"dtype": "DT_INT32", "tensorShape": {}}}, "dtype": {"type": "DT_INT32"}}}, {"name": "Transformer-2-MultiHeadSelfAttention-Add/All/reduction_indices", "op": "Const", "attr": {"dtype": {"type": "DT_INT32"}, "value": {"tensor": {"dtype": "DT_INT32", "tensorShape": {}}}}}, {"name": "Transformer-2-FeedForward-Add/ExpandDims_1/dim", "op": "Const", "attr": {"dtype": {"type": "DT_INT32"}, "value": {"tensor": {"dtype": "DT_INT32", "tensorShape": {}}}}}, {"name": "Transformer-2-FeedForward-Add/concat/axis", "op": "Const", "attr": {"dtype": {"type": "DT_INT32"}, "value": {"tensor": {"dtype": "DT_INT32", "tensorShape": {}}}}}, {"name": "Transformer-2-FeedForward-Add/All/reduction_indices", "op": "Const", "attr": {"value": {"tensor": {"dtype": "DT_INT32", "tensorShape": {}}}, "dtype": {"type": "DT_INT32"}}}, {"name": "Transformer-3-MultiHeadSelfAttention/ExpandDims/dim", "op": "Const", "attr": {"dtype": {"type": "DT_INT32"}, "value": {"tensor": {"dtype": "DT_INT32", "tensorShape": {}}}}}, {"name": "Transformer-3-MultiHeadSelfAttention/ExpandDims_1/dim", "op": "Const", "attr": {"value": {"tensor": {"dtype": "DT_INT32", "tensorShape": {}}}, "dtype": {"type": "DT_INT32"}}}, {"name": "Transformer-3-MultiHeadSelfAttention/einsum_1/strided_slice_1/stack", "op": "Const", "attr": {"dtype": {"type": "DT_INT32"}, "value": {"tensor": {"dtype": "DT_INT32", "tensorShape": {"dim": [{"size": "1"}]}}}}}, {"name": "Transformer-3-MultiHeadSelfAttention/einsum_1/strided_slice_1/stack_1", "op": "Const", "attr": {"dtype": {"type": "DT_INT32"}, "value": {"tensor": {"dtype": "DT_INT32", "tensorShape": {"dim": [{"size": "1"}]}}}}}, {"name": "Transformer-3-MultiHeadSelfAttention/einsum_1/strided_slice_1/stack_2", "op": "Const", "attr": {"value": {"tensor": {"dtype": "DT_INT32", "tensorShape": {"dim": [{"size": "1"}]}}}, "dtype": {"type": "DT_INT32"}}}, {"name": "Transformer-3-MultiHeadSelfAttention/einsum_1/Reshape_2/shape/3", "op": "Const", "attr": {"dtype": {"type": "DT_INT32"}, "value": {"tensor": {"dtype": "DT_INT32", "tensorShape": {}}}}}, {"name": "Transformer-3-MultiHeadSelfAttention/einsum_1/transpose_1/perm", "op": "Const", "attr": {"dtype": {"type": "DT_INT32"}, "value": {"tensor": {"dtype": "DT_INT32", "tensorShape": {"dim": [{"size": "4"}]}}}}}, {"name": "Transformer-3-MultiHeadSelfAttention/strided_slice_3/stack", "op": "Const", "attr": {"value": {"tensor": {"dtype": "DT_INT32", "tensorShape": {"dim": [{"size": "1"}]}}}, "dtype": {"type": "DT_INT32"}}}, {"name": "Transformer-3-MultiHeadSelfAttention/strided_slice_3/stack_1", "op": "Const", "attr": {"dtype": {"type": "DT_INT32"}, "value": {"tensor": {"dtype": "DT_INT32", "tensorShape": {"dim": [{"size": "1"}]}}}}}, {"name": "Transformer-3-MultiHeadSelfAttention/strided_slice_3/stack_2", "op": "Const", "attr": {"value": {"tensor": {"dtype": "DT_INT32", "tensorShape": {"dim": [{"size": "1"}]}}}, "dtype": {"type": "DT_INT32"}}}, {"name": "Transformer-3-MultiHeadSelfAttention/Reshape_3/shape/2", "op": "Const", "attr": {"value": {"tensor": {"dtype": "DT_INT32", "tensorShape": {}}}, "dtype": {"type": "DT_INT32"}}}, {"name": "Transformer-3-MultiHeadSelfAttention/dense_22/Reshape_2/shape/2", "op": "Const", "attr": {"value": {"tensor": {"dtype": "DT_INT32", "tensorShape": {}}}, "dtype": {"type": "DT_INT32"}}}, {"name": "Transformer-3-MultiHeadSelfAttention/dense_22/Reshape_3", "op": "Const", "attr": {"value": {"tensor": {"dtype": "DT_FLOAT", "tensorShape": {"dim": [{"size": "1"}, {"size": "1"}, {"size": "256"}]}}}, "dtype": {"type": "DT_FLOAT"}}}, {"name": "Transformer-3-MultiHeadSelfAttention-Norm/Mean/reduction_indices", "op": "Const", "attr": {"dtype": {"type": "DT_INT32"}, "value": {"tensor": {"dtype": "DT_INT32", "tensorShape": {}}}}}, {"name": "Transformer-3-MultiHeadSelfAttention-Norm/Mean_1/reduction_indices", "op": "Const", "attr": {"dtype": {"type": "DT_INT32"}, "value": {"tensor": {"dtype": "DT_INT32", "tensorShape": {}}}}}, {"name": "Transformer-3-MultiHeadSelfAttention-Norm/add/y", "op": "Const", "attr": {"value": {"tensor": {"dtype": "DT_FLOAT", "tensorShape": {}}}, "dtype": {"type": "DT_FLOAT"}}}, {"name": "Transformer-3-MultiHeadSelfAttention-Norm/Const_3", "op": "Const", "attr": {"dtype": {"type": "DT_FLOAT"}, "value": {"tensor": {"dtype": "DT_FLOAT", "tensorShape": {}}}}}, {"name": "Transformer-3-MultiHeadSelfAttention-Norm/Const_2", "op": "Const", "attr": {"value": {"tensor": {"dtype": "DT_FLOAT", "tensorShape": {}}}, "dtype": {"type": "DT_FLOAT"}}}, {"name": "Transformer-3-MultiHeadSelfAttention-Norm/beta", "op": "Const", "attr": {"value": {"tensor": {"dtype": "DT_FLOAT", "tensorShape": {"dim": [{"size": "256"}]}}}, "dtype": {"type": "DT_FLOAT"}}}, {"name": "Transformer-3-FeedForward/dense_23/Reshape_2/shape/2", "op": "Const", "attr": {"value": {"tensor": {"dtype": "DT_INT32", "tensorShape": {}}}, "dtype": {"type": "DT_INT32"}}}, {"name": "Transformer-3-FeedForward/dense_23/Reshape_3", "op": "Const", "attr": {"dtype": {"type": "DT_FLOAT"}, "value": {"tensor": {"dtype": "DT_FLOAT", "tensorShape": {"dim": [{"size": "1"}, {"size": "1"}, {"size": "512"}]}}}}}, {"name": "ConstantFolding/Transformer-3-FeedForward/dense_23/truediv_recip", "op": "Const", "attr": {"value": {"tensor": {"dtype": "DT_FLOAT", "tensorShape": {}}}, "dtype": {"type": "DT_FLOAT"}}}, {"name": "Transformer-3-FeedForward/dense_24/Reshape_2/shape/2", "op": "Const", "attr": {"value": {"tensor": {"dtype": "DT_INT32", "tensorShape": {}}}, "dtype": {"type": "DT_INT32"}}}, {"name": "Transformer-3-FeedForward/dense_24/Reshape_3", "op": "Const", "attr": {"dtype": {"type": "DT_FLOAT"}, "value": {"tensor": {"dtype": "DT_FLOAT", "tensorShape": {"dim": [{"size": "1"}, {"size": "1"}, {"size": "256"}]}}}}}, {"name": "keras_learning_phase/input", "op": "Const", "attr": {"value": {"tensor": {"dtype": "DT_BOOL", "tensorShape": {}}}, "dtype": {"type": "DT_BOOL"}}}, {"name": "Transformer-3-FeedForward-Norm/Mean/reduction_indices", "op": "Const", "attr": {"value": {"tensor": {"dtype": "DT_INT32", "tensorShape": {}}}, "dtype": {"type": "DT_INT32"}}}, {"name": "Transformer-3-FeedForward-Norm/Mean_1/reduction_indices", "op": "Const", "attr": {"dtype": {"type": "DT_INT32"}, "value": {"tensor": {"dtype": "DT_INT32", "tensorShape": {}}}}}, {"name": "Transformer-3-FeedForward-Norm/add/y", "op": "Const", "attr": {"dtype": {"type": "DT_FLOAT"}, "value": {"tensor": {"dtype": "DT_FLOAT", "tensorShape": {}}}}}, {"name": "Transformer-3-FeedForward-Norm/Const_3", "op": "Const", "attr": {"value": {"tensor": {"dtype": "DT_FLOAT", "tensorShape": {}}}, "dtype": {"type": "DT_FLOAT"}}}, {"name": "Transformer-3-FeedForward-Norm/Const_2", "op": "Const", "attr": {"value": {"tensor": {"dtype": "DT_FLOAT", "tensorShape": {}}}, "dtype": {"type": "DT_FLOAT"}}}, {"name": "Transformer-3-FeedForward-Norm/beta", "op": "Const", "attr": {"value": {"tensor": {"dtype": "DT_FLOAT", "tensorShape": {"dim": [{"size": "256"}]}}}, "dtype": {"type": "DT_FLOAT"}}}, {"name": "MLM-Dense/Reshape_2/shape/2", "op": "Const", "attr": {"dtype": {"type": "DT_INT32"}, "value": {"tensor": {"dtype": "DT_INT32", "tensorShape": {}}}}}, {"name": "MLM-Dense/Reshape_3", "op": "Const", "attr": {"value": {"tensor": {"dtype": "DT_FLOAT", "tensorShape": {"dim": [{"size": "1"}, {"size": "1"}, {"size": "256"}]}}}, "dtype": {"type": "DT_FLOAT"}}}, {"name": "ConstantFolding/MLM-Dense/truediv_recip", "op": "Const", "attr": {"value": {"tensor": {"dtype": "DT_FLOAT", "tensorShape": {}}}, "dtype": {"type": "DT_FLOAT"}}}, {"name": "MLM-Norm/Mean/reduction_indices", "op": "Const", "attr": {"dtype": {"type": "DT_INT32"}, "value": {"tensor": {"dtype": "DT_INT32", "tensorShape": {}}}}}, {"name": "MLM-Norm/beta", "op": "Const", "attr": {"value": {"tensor": {"dtype": "DT_FLOAT", "tensorShape": {"dim": [{"size": "256"}]}}}, "dtype": {"type": "DT_FLOAT"}}}, {"name": "Embedding-Token_1/Reshape_2/shape/2", "op": "Const", "attr": {"dtype": {"type": "DT_INT32"}, "value": {"tensor": {"dtype": "DT_INT32", "tensorShape": {}}}}}, {"name": "MLM-Bias/Reshape", "op": "Const", "attr": {"dtype": {"type": "DT_FLOAT"}, "value": {"tensor": {"dtype": "DT_FLOAT", "tensorShape": {"dim": [{"size": "1"}, {"size": "1"}, {"size": "99"}]}}}}}, {"name": "MLM-Activation/Max/reduction_indices", "op": "Const", "attr": {"value": {"tensor": {"dtype": "DT_INT32", "tensorShape": {}}}, "dtype": {"type": "DT_INT32"}}}, {"name": "MLM-Activation/Sum/reduction_indices", "op": "Const", "attr": {"dtype": {"type": "DT_INT32"}, "value": {"tensor": {"dtype": "DT_INT32", "tensorShape": {}}}}}, {"name": "Embedding-Segment/Cast", "op": "Cast", "input": ["Input-Segment"], "attr": {"SrcT": {"type": "DT_FLOAT"}, "DstT": {"type": "DT_INT32"}, "Truncate": {"b": false}}}, {"name": "Embedding-Token/Cast", "op": "Cast", "input": ["Input-Token"], "attr": {"DstT": {"type": "DT_INT32"}, "Truncate": {"b": false}, "SrcT": {"type": "DT_FLOAT"}}}, {"name": "Embedding-Token/NotEqual", "op": "NotEqual", "input": ["Input-Token", "Embedding-Token/NotEqual/y"], "attr": {"incompatible_shape_error": {"b": true}, "T": {"type": "DT_FLOAT"}}}, {"name": "keras_learning_phase", "op": "PlaceholderWithDefault", "input": ["keras_learning_phase/input"], "attr": {"dtype": {"type": "DT_BOOL"}, "shape": {"shape": {}}}}, {"name": "Embedding-Segment/embedding_lookup", "op": "GatherV2", "input": ["Embedding-Segment/embeddings", "Embedding-Segment/Cast", "Embedding-Segment/embedding_lookup/axis"], "attr": {"Tindices": {"type": "DT_INT32"}, "Tparams": {"type": "DT_FLOAT"}, "Taxis": {"type": "DT_INT32"}, "batch_dims": {"i": "0"}}}, {"name": "Embedding-Token/embedding_lookup", "op": "GatherV2", "input": ["Embedding-Token/embeddings", "Embedding-Token/Cast", "Embedding-Token/embedding_lookup/axis"], "attr": {"batch_dims": {"i": "0"}, "Taxis": {"type": "DT_INT32"}, "Tindices": {"type": "DT_INT32"}, "Tparams": {"type": "DT_FLOAT"}}}, {"name": "Embedding-Token/strided_slice", "op": "StridedSlice", "input": ["Embedding-Token/NotEqual", "Embedding-Token/strided_slice/stack", "Embedding-Token/strided_slice/stack_1", "Embedding-Token/strided_slice/stack_2"], "attr": {"ellipsis_mask": {"i": "0"}, "Index": {"type": "DT_INT32"}, "shrink_axis_mask": {"i": "0"}, "new_axis_mask": {"i": "0"}, "T": {"type": "DT_BOOL"}, "end_mask": {"i": "1"}, "begin_mask": {"i": "3"}}}, {"name": "Embedding-Token/strided_slice_1", "op": "StridedSlice", "input": ["Embedding-Token/NotEqual", "Embedding-Token/strided_slice_1/stack", "Embedding-Token/strided_slice_1/stack_1", "Embedding-Token/strided_slice_1/stack_2"], "attr": {"ellipsis_mask": {"i": "0"}, "Index": {"type": "DT_INT32"}, "begin_mask": {"i": "1"}, "T": {"type": "DT_BOOL"}, "end_mask": {"i": "3"}, "shrink_axis_mask": {"i": "0"}, "new_axis_mask": {"i": "0"}}}, {"name": "Embedding-Dropout/cond/Switch", "op": "Switch", "input": ["keras_learning_phase", "keras_learning_phase"], "attr": {"T": {"type": "DT_BOOL"}}}, {"name": "Transformer-0-MultiHeadSelfAttention-Dropout/cond/Switch", "op": "Switch", "input": ["keras_learning_phase", "keras_learning_phase"], "attr": {"T": {"type": "DT_BOOL"}}}, {"name": "Transformer-0-FeedForward-Dropout/cond/Switch", "op": "Switch", "input": ["keras_learning_phase", "keras_learning_phase"], "attr": {"T": {"type": "DT_BOOL"}}}, {"name": "Transformer-1-MultiHeadSelfAttention-Dropout/cond/Switch", "op": "Switch", "input": ["keras_learning_phase", "keras_learning_phase"], "attr": {"T": {"type": "DT_BOOL"}}}, {"name": "Transformer-1-FeedForward-Dropout/cond/Switch", "op": "Switch", "input": ["keras_learning_phase", "keras_learning_phase"], "attr": {"T": {"type": "DT_BOOL"}}}, {"name": "Transformer-2-MultiHeadSelfAttention-Dropout/cond/Switch", "op": "Switch", "input": ["keras_learning_phase", "keras_learning_phase"], "attr": {"T": {"type": "DT_BOOL"}}}, {"name": "Transformer-2-FeedForward-Dropout/cond/Switch", "op": "Switch", "input": ["keras_learning_phase", "keras_learning_phase"], "attr": {"T": {"type": "DT_BOOL"}}}, {"name": "Transformer-3-MultiHeadSelfAttention-Dropout/cond/Switch", "op": "Switch", "input": ["keras_learning_phase", "keras_learning_phase"], "attr": {"T": {"type": "DT_BOOL"}}}, {"name": "Transformer-3-FeedForward-Dropout/cond/Switch", "op": "Switch", "input": ["keras_learning_phase", "keras_learning_phase"], "attr": {"T": {"type": "DT_BOOL"}}}, {"name": "Embedding-Token-Segment/add", "op": "AddV2", "input": ["Embedding-Token/embedding_lookup", "Embedding-Segment/embedding_lookup"], "attr": {"T": {"type": "DT_FLOAT"}}}, {"name": "Embedding-Token/ones_like/Shape", "op": "Shape", "input": ["Embedding-Token/strided_slice"], "attr": {"out_type": {"type": "DT_INT32"}, "T": {"type": "DT_BOOL"}}}, {"name": "Embedding-Dropout/cond/switch_t", "op": "Identity", "input": ["Embedding-Dropout/cond/Switch:1"], "attr": {"T": {"type": "DT_BOOL"}}}, {"name": "Transformer-0-MultiHeadSelfAttention-Dropout/cond/switch_t", "op": "Identity", "input": ["Transformer-0-MultiHeadSelfAttention-Dropout/cond/Switch:1"], "attr": {"T": {"type": "DT_BOOL"}}}, {"name": "Transformer-0-FeedForward-Dropout/cond/switch_t", "op": "Identity", "input": ["Transformer-0-FeedForward-Dropout/cond/Switch:1"], "attr": {"T": {"type": "DT_BOOL"}}}, {"name": "Transformer-1-MultiHeadSelfAttention-Dropout/cond/switch_t", "op": "Identity", "input": ["Transformer-1-MultiHeadSelfAttention-Dropout/cond/Switch:1"], "attr": {"T": {"type": "DT_BOOL"}}}, {"name": "Transformer-1-FeedForward-Dropout/cond/switch_t", "op": "Identity", "input": ["Transformer-1-FeedForward-Dropout/cond/Switch:1"], "attr": {"T": {"type": "DT_BOOL"}}}, {"name": "Transformer-2-MultiHeadSelfAttention-Dropout/cond/switch_t", "op": "Identity", "input": ["Transformer-2-MultiHeadSelfAttention-Dropout/cond/Switch:1"], "attr": {"T": {"type": "DT_BOOL"}}}, {"name": "Transformer-2-FeedForward-Dropout/cond/switch_t", "op": "Identity", "input": ["Transformer-2-FeedForward-Dropout/cond/Switch:1"], "attr": {"T": {"type": "DT_BOOL"}}}, {"name": "Transformer-3-MultiHeadSelfAttention-Dropout/cond/switch_t", "op": "Identity", "input": ["Transformer-3-MultiHeadSelfAttention-Dropout/cond/Switch:1"], "attr": {"T": {"type": "DT_BOOL"}}}, {"name": "Transformer-3-FeedForward-Dropout/cond/switch_t", "op": "Identity", "input": ["Transformer-3-FeedForward-Dropout/cond/Switch:1"], "attr": {"T": {"type": "DT_BOOL"}}}, {"name": "Embedding-Position/Shape", "op": "Shape", "input": ["Embedding-Token-Segment/add"], "attr": {"T": {"type": "DT_FLOAT"}, "out_type": {"type": "DT_INT32"}}}, {"name": "Embedding-Token/ones_like", "op": "Fill", "input": ["Embedding-Token/ones_like/Shape", "Embedding-Token/ones_like/Const"], "attr": {"T": {"type": "DT_BOOL"}, "index_type": {"type": "DT_INT32"}}}, {"name": "Embedding-Dropout/cond/dropout/truediv", "op": "Const", "input": ["^Embedding-Dropout/cond/switch_t"], "attr": {"value": {"tensor": {"dtype": "DT_FLOAT", "tensorShape": {}}}, "dtype": {"type": "DT_FLOAT"}}}, {"name": "Embedding-Dropout/cond/dropout/random_uniform/sub", "op": "Const", "input": ["^Embedding-Dropout/cond/switch_t"], "attr": {"value": {"tensor": {"dtype": "DT_FLOAT", "tensorShape": {}}}, "dtype": {"type": "DT_FLOAT"}}}, {"name": "Embedding-Dropout/cond/dropout/random_uniform/min", "op": "Const", "input": ["^Embedding-Dropout/cond/switch_t"], "attr": {"dtype": {"type": "DT_FLOAT"}, "value": {"tensor": {"dtype": "DT_FLOAT", "tensorShape": {}}}}}, {"name": "Embedding-Dropout/cond/dropout/rate", "op": "Const", "input": ["^Embedding-Dropout/cond/switch_t"], "attr": {"value": {"tensor": {"dtype": "DT_FLOAT", "tensorShape": {}}}, "dtype": {"type": "DT_FLOAT"}}}, {"name": "Transformer-0-MultiHeadSelfAttention-Dropout/cond/dropout/truediv", "op": "Const", "input": ["^Transformer-0-MultiHeadSelfAttention-Dropout/cond/switch_t"], "attr": {"value": {"tensor": {"dtype": "DT_FLOAT", "tensorShape": {}}}, "dtype": {"type": "DT_FLOAT"}}}, {"name": "Transformer-0-MultiHeadSelfAttention-Dropout/cond/dropout/rate", "op": "Const", "input": ["^Transformer-0-MultiHeadSelfAttention-Dropout/cond/switch_t"], "attr": {"value": {"tensor": {"dtype": "DT_FLOAT", "tensorShape": {}}}, "dtype": {"type": "DT_FLOAT"}}}, {"name": "Transformer-0-FeedForward-Dropout/cond/dropout/truediv", "op": "Const", "input": ["^Transformer-0-FeedForward-Dropout/cond/switch_t"], "attr": {"dtype": {"type": "DT_FLOAT"}, "value": {"tensor": {"dtype": "DT_FLOAT", "tensorShape": {}}}}}, {"name": "Transformer-0-FeedForward-Dropout/cond/dropout/rate", "op": "Const", "input": ["^Transformer-0-FeedForward-Dropout/cond/switch_t"], "attr": {"dtype": {"type": "DT_FLOAT"}, "value": {"tensor": {"dtype": "DT_FLOAT", "tensorShape": {}}}}}, {"name": "Transformer-1-MultiHeadSelfAttention-Dropout/cond/dropout/truediv", "op": "Const", "input": ["^Transformer-1-MultiHeadSelfAttention-Dropout/cond/switch_t"], "attr": {"value": {"tensor": {"dtype": "DT_FLOAT", "tensorShape": {}}}, "dtype": {"type": "DT_FLOAT"}}}, {"name": "Transformer-1-MultiHeadSelfAttention-Dropout/cond/dropout/rate", "op": "Const", "input": ["^Transformer-1-MultiHeadSelfAttention-Dropout/cond/switch_t"], "attr": {"value": {"tensor": {"dtype": "DT_FLOAT", "tensorShape": {}}}, "dtype": {"type": "DT_FLOAT"}}}, {"name": "Transformer-1-FeedForward-Dropout/cond/dropout/truediv", "op": "Const", "input": ["^Transformer-1-FeedForward-Dropout/cond/switch_t"], "attr": {"value": {"tensor": {"dtype": "DT_FLOAT", "tensorShape": {}}}, "dtype": {"type": "DT_FLOAT"}}}, {"name": "Transformer-1-FeedForward-Dropout/cond/dropout/rate", "op": "Const", "input": ["^Transformer-1-FeedForward-Dropout/cond/switch_t"], "attr": {"value": {"tensor": {"dtype": "DT_FLOAT", "tensorShape": {}}}, "dtype": {"type": "DT_FLOAT"}}}, {"name": "Transformer-2-MultiHeadSelfAttention-Dropout/cond/dropout/truediv", "op": "Const", "input": ["^Transformer-2-MultiHeadSelfAttention-Dropout/cond/switch_t"], "attr": {"dtype": {"type": "DT_FLOAT"}, "value": {"tensor": {"dtype": "DT_FLOAT", "tensorShape": {}}}}}, {"name": "Transformer-2-MultiHeadSelfAttention-Dropout/cond/dropout/rate", "op": "Const", "input": ["^Transformer-2-MultiHeadSelfAttention-Dropout/cond/switch_t"], "attr": {"value": {"tensor": {"dtype": "DT_FLOAT", "tensorShape": {}}}, "dtype": {"type": "DT_FLOAT"}}}, {"name": "Transformer-2-FeedForward-Dropout/cond/dropout/truediv", "op": "Const", "input": ["^Transformer-2-FeedForward-Dropout/cond/switch_t"], "attr": {"value": {"tensor": {"dtype": "DT_FLOAT", "tensorShape": {}}}, "dtype": {"type": "DT_FLOAT"}}}, {"name": "Transformer-2-FeedForward-Dropout/cond/dropout/rate", "op": "Const", "input": ["^Transformer-2-FeedForward-Dropout/cond/switch_t"], "attr": {"dtype": {"type": "DT_FLOAT"}, "value": {"tensor": {"dtype": "DT_FLOAT", "tensorShape": {}}}}}, {"name": "Transformer-3-MultiHeadSelfAttention-Dropout/cond/dropout/truediv", "op": "Const", "input": ["^Transformer-3-MultiHeadSelfAttention-Dropout/cond/switch_t"], "attr": {"value": {"tensor": {"dtype": "DT_FLOAT", "tensorShape": {}}}, "dtype": {"type": "DT_FLOAT"}}}, {"name": "Transformer-3-MultiHeadSelfAttention-Dropout/cond/dropout/rate", "op": "Const", "input": ["^Transformer-3-MultiHeadSelfAttention-Dropout/cond/switch_t"], "attr": {"value": {"tensor": {"dtype": "DT_FLOAT", "tensorShape": {}}}, "dtype": {"type": "DT_FLOAT"}}}, {"name": "Transformer-3-FeedForward-Dropout/cond/dropout/truediv", "op": "Const", "input": ["^Transformer-3-FeedForward-Dropout/cond/switch_t"], "attr": {"value": {"tensor": {"dtype": "DT_FLOAT", "tensorShape": {}}}, "dtype": {"type": "DT_FLOAT"}}}, {"name": "Transformer-3-FeedForward-Dropout/cond/dropout/rate", "op": "Const", "input": ["^Transformer-3-FeedForward-Dropout/cond/switch_t"], "attr": {"value": {"tensor": {"dtype": "DT_FLOAT", "tensorShape": {}}}, "dtype": {"type": "DT_FLOAT"}}}, {"name": "Embedding-Position/strided_slice_1", "op": "StridedSlice", "input": ["Embedding-Position/Shape", "Embedding-Position/strided_slice_1/stack", "Embedding-Position/strided_slice_1/stack_1", "Embedding-Position/strided_slice_1/stack_2"], "attr": {"Index": {"type": "DT_INT32"}, "shrink_axis_mask": {"i": "1"}, "begin_mask": {"i": "0"}, "ellipsis_mask": {"i": "0"}, "end_mask": {"i": "0"}, "new_axis_mask": {"i": "0"}, "T": {"type": "DT_INT32"}}}, {"name": "Embedding-Token/concat", "op": "ConcatV2", "input": ["Embedding-Token/ones_like", "Embedding-Token/strided_slice_1", "Embedding-Token/concat/axis"], "attr": {"T": {"type": "DT_BOOL"}, "Tidx": {"type": "DT_INT32"}, "N": {"i": "2"}}}, {"name": "Embedding-Position/strided_slice_3/stack_1", "op": "Pack", "input": ["Embedding-Position/strided_slice_3/stack_1/0", "Embedding-Position/strided_slice_1"], "attr": {"N": {"i": "2"}, "axis": {"i": "0"}, "T": {"type": "DT_INT32"}}}, {"name": "Embedding-Token-Segment/ExpandDims", "op": "ExpandDims", "input": ["Embedding-Token/concat", "Embedding-Token-Segment/ExpandDims/dim"], "attr": {"Tdim": {"type": "DT_INT32"}, "T": {"type": "DT_BOOL"}}}, {"name": "Embedding-Position/strided_slice_3", "op": "StridedSlice", "input": ["Embedding-Position/embeddings", "Embedding-Position/strided_slice_3/stack", "Embedding-Position/strided_slice_3/stack_1", "Embedding-Position/strided_slice_3/stack_2"], "attr": {"shrink_axis_mask": {"i": "0"}, "begin_mask": {"i": "2"}, "new_axis_mask": {"i": "1"}, "end_mask": {"i": "0"}, "T": {"type": "DT_FLOAT"}, "ellipsis_mask": {"i": "0"}, "Index": {"type": "DT_INT32"}}}, {"name": "Embedding-Token-Segment/All", "op": "All", "input": ["Embedding-Token-Segment/ExpandDims", "Embedding-Token-Segment/All/reduction_indices"], "attr": {"Tidx": {"type": "DT_INT32"}, "keep_dims": {"b": false}}}, {"name": "Embedding-Position/add", "op": "AddV2", "input": ["Embedding-Token-Segment/add", "Embedding-Position/strided_slice_3"], "attr": {"T": {"type": "DT_FLOAT"}}}, {"name": "Transformer-0-MultiHeadSelfAttention/Cast", "op": "Cast", "input": ["Embedding-Token-Segment/All"], "attr": {"DstT": {"type": "DT_FLOAT"}, "Truncate": {"b": false}, "SrcT": {"type": "DT_BOOL"}}}, {"name": "Transformer-0-MultiHeadSelfAttention-Add/ExpandDims", "op": "ExpandDims", "input": ["Embedding-Token-Segment/All", "Transformer-0-MultiHeadSelfAttention-Add/ExpandDims/dim"], "attr": {"Tdim": {"type": "DT_INT32"}, "T": {"type": "DT_BOOL"}}}, {"name": "Transformer-0-MultiHeadSelfAttention-Add/ExpandDims_1", "op": "ExpandDims", "input": ["Embedding-Token-Segment/All", "Transformer-0-MultiHeadSelfAttention-Add/ExpandDims_1/dim"], "attr": {"T": {"type": "DT_BOOL"}, "Tdim": {"type": "DT_INT32"}}}, {"name": "Embedding-Norm/Mean", "op": "Mean", "input": ["Embedding-Position/add", "Embedding-Norm/Mean/reduction_indices"], "attr": {"keep_dims": {"b": true}, "T": {"type": "DT_FLOAT"}, "Tidx": {"type": "DT_INT32"}}}, {"name": "Transformer-0-MultiHeadSelfAttention/ExpandDims", "op": "ExpandDims", "input": ["Transformer-0-MultiHeadSelfAttention/Cast", "Transformer-0-MultiHeadSelfAttention/ExpandDims/dim"], "attr": {"T": {"type": "DT_FLOAT"}, "Tdim": {"type": "DT_INT32"}}}, {"name": "Transformer-0-MultiHeadSelfAttention-Add/concat", "op": "ConcatV2", "input": ["Transformer-0-MultiHeadSelfAttention-Add/ExpandDims", "Transformer-0-MultiHeadSelfAttention-Add/ExpandDims_1", "Transformer-0-MultiHeadSelfAttention-Add/concat/axis"], "attr": {"Tidx": {"type": "DT_INT32"}, "T": {"type": "DT_BOOL"}, "N": {"i": "2"}}}, {"name": "Embedding-Norm/sub", "op": "Sub", "input": ["Embedding-Position/add", "Embedding-Norm/Mean"], "attr": {"T": {"type": "DT_FLOAT"}}}, {"name": "Transformer-0-MultiHeadSelfAttention/ExpandDims_1", "op": "ExpandDims", "input": ["Transformer-0-MultiHeadSelfAttention/ExpandDims", "Transformer-0-MultiHeadSelfAttention/ExpandDims_1/dim"], "attr": {"T": {"type": "DT_FLOAT"}, "Tdim": {"type": "DT_INT32"}}}, {"name": "Transformer-0-MultiHeadSelfAttention-Add/All", "op": "All", "input": ["Transformer-0-MultiHeadSelfAttention-Add/concat", "Transformer-0-MultiHeadSelfAttention-Add/All/reduction_indices"], "attr": {"keep_dims": {"b": false}, "Tidx": {"type": "DT_INT32"}}}, {"name": "Embedding-Norm/Square", "op": "Square", "input": ["Embedding-Norm/sub"], "attr": {"T": {"type": "DT_FLOAT"}}}, {"name": "Transformer-0-MultiHeadSelfAttention/sub", "op": "Sub", "input": ["Transformer-0-MultiHeadSelfAttention/sub/x", "Transformer-0-MultiHeadSelfAttention/ExpandDims_1"], "attr": {"T": {"type": "DT_FLOAT"}}}, {"name": "Transformer-0-FeedForward-Add/ExpandDims", "op": "ExpandDims", "input": ["Transformer-0-MultiHeadSelfAttention-Add/All", "Transformer-0-FeedForward-Add/ExpandDims/dim"], "attr": {"T": {"type": "DT_BOOL"}, "Tdim": {"type": "DT_INT32"}}}, {"name": "Transformer-0-FeedForward-Add/ExpandDims_1", "op": "ExpandDims", "input": ["Transformer-0-MultiHeadSelfAttention-Add/All", "Transformer-0-FeedForward-Add/ExpandDims_1/dim"], "attr": {"T": {"type": "DT_BOOL"}, "Tdim": {"type": "DT_INT32"}}}, {"name": "Embedding-Norm/Mean_1", "op": "Mean", "input": ["Embedding-Norm/Square", "Embedding-Norm/Mean_1/reduction_indices"], "attr": {"keep_dims": {"b": true}, "T": {"type": "DT_FLOAT"}, "Tidx": {"type": "DT_INT32"}}}, {"name": "Transformer-0-MultiHeadSelfAttention/mul_1", "op": "Mul", "input": ["Transformer-0-MultiHeadSelfAttention/mul_1/x", "Transformer-0-MultiHeadSelfAttention/sub"], "attr": {"T": {"type": "DT_FLOAT"}}}, {"name": "Transformer-0-FeedForward-Add/concat", "op": "ConcatV2", "input": ["Transformer-0-FeedForward-Add/ExpandDims", "Transformer-0-FeedForward-Add/ExpandDims_1", "Transformer-0-FeedForward-Add/concat/axis"], "attr": {"N": {"i": "2"}, "T": {"type": "DT_BOOL"}, "Tidx": {"type": "DT_INT32"}}}, {"name": "Embedding-Norm/add", "op": "AddV2", "input": ["Embedding-Norm/Mean_1", "Embedding-Norm/add/y"], "attr": {"T": {"type": "DT_FLOAT"}}}, {"name": "Transformer-0-FeedForward-Add/All", "op": "All", "input": ["Transformer-0-FeedForward-Add/concat", "Transformer-0-FeedForward-Add/All/reduction_indices"], "attr": {"keep_dims": {"b": false}, "Tidx": {"type": "DT_INT32"}}}, {"name": "Embedding-Norm/clip_by_value/Minimum", "op": "Minimum", "input": ["Embedding-Norm/add", "Embedding-Norm/Const_3"], "attr": {"T": {"type": "DT_FLOAT"}}}, {"name": "Transformer-1-MultiHeadSelfAttention/Cast", "op": "Cast", "input": ["Transformer-0-FeedForward-Add/All"], "attr": {"DstT": {"type": "DT_FLOAT"}, "Truncate": {"b": false}, "SrcT": {"type": "DT_BOOL"}}}, {"name": "Transformer-1-MultiHeadSelfAttention-Add/ExpandDims", "op": "ExpandDims", "input": ["Transformer-0-FeedForward-Add/All", "Transformer-1-MultiHeadSelfAttention-Add/ExpandDims/dim"], "attr": {"Tdim": {"type": "DT_INT32"}, "T": {"type": "DT_BOOL"}}}, {"name": "Transformer-1-MultiHeadSelfAttention-Add/ExpandDims_1", "op": "ExpandDims", "input": ["Transformer-0-FeedForward-Add/All", "Transformer-1-MultiHeadSelfAttention-Add/ExpandDims_1/dim"], "attr": {"Tdim": {"type": "DT_INT32"}, "T": {"type": "DT_BOOL"}}}, {"name": "Embedding-Norm/clip_by_value", "op": "Maximum", "input": ["Embedding-Norm/clip_by_value/Minimum", "Embedding-Norm/Const_2"], "attr": {"T": {"type": "DT_FLOAT"}}}, {"name": "Transformer-1-MultiHeadSelfAttention/ExpandDims", "op": "ExpandDims", "input": ["Transformer-1-MultiHeadSelfAttention/Cast", "Transformer-1-MultiHeadSelfAttention/ExpandDims/dim"], "attr": {"T": {"type": "DT_FLOAT"}, "Tdim": {"type": "DT_INT32"}}}, {"name": "Transformer-1-MultiHeadSelfAttention-Add/concat", "op": "ConcatV2", "input": ["Transformer-1-MultiHeadSelfAttention-Add/ExpandDims", "Transformer-1-MultiHeadSelfAttention-Add/ExpandDims_1", "Transformer-1-MultiHeadSelfAttention-Add/concat/axis"], "attr": {"N": {"i": "2"}, "Tidx": {"type": "DT_INT32"}, "T": {"type": "DT_BOOL"}}}, {"name": "Embedding-Norm/Sqrt", "op": "Rsqrt", "input": ["Embedding-Norm/clip_by_value"], "attr": {"T": {"type": "DT_FLOAT"}}}, {"name": "Transformer-1-MultiHeadSelfAttention/ExpandDims_1", "op": "ExpandDims", "input": ["Transformer-1-MultiHeadSelfAttention/ExpandDims", "Transformer-1-MultiHeadSelfAttention/ExpandDims_1/dim"], "attr": {"T": {"type": "DT_FLOAT"}, "Tdim": {"type": "DT_INT32"}}}, {"name": "Transformer-1-MultiHeadSelfAttention-Add/All", "op": "All", "input": ["Transformer-1-MultiHeadSelfAttention-Add/concat", "Transformer-1-MultiHeadSelfAttention-Add/All/reduction_indices"], "attr": {"keep_dims": {"b": false}, "Tidx": {"type": "DT_INT32"}}}, {"name": "Embedding-Norm/truediv", "op": "Mul", "input": ["Embedding-Norm/gamma", "Embedding-Norm/Sqrt"], "attr": {"T": {"type": "DT_FLOAT"}}}, {"name": "Transformer-1-MultiHeadSelfAttention/sub", "op": "Sub", "input": ["Transformer-1-MultiHeadSelfAttention/sub/x", "Transformer-1-MultiHeadSelfAttention/ExpandDims_1"], "attr": {"T": {"type": "DT_FLOAT"}}}, {"name": "Transformer-1-FeedForward-Add/ExpandDims", "op": "ExpandDims", "input": ["Transformer-1-MultiHeadSelfAttention-Add/All", "Transformer-1-FeedForward-Add/ExpandDims/dim"], "attr": {"T": {"type": "DT_BOOL"}, "Tdim": {"type": "DT_INT32"}}}, {"name": "Transformer-1-FeedForward-Add/ExpandDims_1", "op": "ExpandDims", "input": ["Transformer-1-MultiHeadSelfAttention-Add/All", "Transformer-1-FeedForward-Add/ExpandDims_1/dim"], "attr": {"T": {"type": "DT_BOOL"}, "Tdim": {"type": "DT_INT32"}}}, {"name": "Embedding-Norm/mul", "op": "Mul", "input": ["Embedding-Norm/sub", "Embedding-Norm/truediv"], "attr": {"T": {"type": "DT_FLOAT"}}}, {"name": "Transformer-1-MultiHeadSelfAttention/mul_1", "op": "Mul", "input": ["Transformer-1-MultiHeadSelfAttention/mul_1/x", "Transformer-1-MultiHeadSelfAttention/sub"], "attr": {"T": {"type": "DT_FLOAT"}}}, {"name": "Transformer-1-FeedForward-Add/concat", "op": "ConcatV2", "input": ["Transformer-1-FeedForward-Add/ExpandDims", "Transformer-1-FeedForward-Add/ExpandDims_1", "Transformer-1-FeedForward-Add/concat/axis"], "attr": {"N": {"i": "2"}, "T": {"type": "DT_BOOL"}, "Tidx": {"type": "DT_INT32"}}}, {"name": "Embedding-Norm/add_1", "op": "AddV2", "input": ["Embedding-Norm/mul", "Embedding-Norm/beta"], "attr": {"T": {"type": "DT_FLOAT"}}}, {"name": "Transformer-1-FeedForward-Add/All", "op": "All", "input": ["Transformer-1-FeedForward-Add/concat", "Transformer-1-FeedForward-Add/All/reduction_indices"], "attr": {"keep_dims": {"b": false}, "Tidx": {"type": "DT_INT32"}}}, {"name": "Embedding-Dropout/cond/Switch_1", "op": "Switch", "input": ["Embedding-Norm/add_1", "keras_learning_phase"], "attr": {"T": {"type": "DT_FLOAT"}}}, {"name": "Embedding-Dropout/cond/dropout/Shape/Switch", "op": "Switch", "input": ["Embedding-Norm/add_1", "keras_learning_phase"], "attr": {"T": {"type": "DT_FLOAT"}}}, {"name": "Transformer-2-MultiHeadSelfAttention/Cast", "op": "Cast", "input": ["Transformer-1-FeedForward-Add/All"], "attr": {"DstT": {"type": "DT_FLOAT"}, "Truncate": {"b": false}, "SrcT": {"type": "DT_BOOL"}}}, {"name": "Transformer-2-MultiHeadSelfAttention-Add/ExpandDims", "op": "ExpandDims", "input": ["Transformer-1-FeedForward-Add/All", "Transformer-2-MultiHeadSelfAttention-Add/ExpandDims/dim"], "attr": {"T": {"type": "DT_BOOL"}, "Tdim": {"type": "DT_INT32"}}}, {"name": "Transformer-2-MultiHeadSelfAttention-Add/ExpandDims_1", "op": "ExpandDims", "input": ["Transformer-1-FeedForward-Add/All", "Transformer-2-MultiHeadSelfAttention-Add/ExpandDims_1/dim"], "attr": {"Tdim": {"type": "DT_INT32"}, "T": {"type": "DT_BOOL"}}}, {"name": "Embedding-Dropout/cond/dropout/mul", "op": "Mul", "input": ["Embedding-Dropout/cond/dropout/Shape/Switch:1", "Embedding-Dropout/cond/dropout/truediv"], "attr": {"T": {"type": "DT_FLOAT"}}}, {"name": "Embedding-Dropout/cond/dropout/Shape", "op": "Shape", "input": ["Embedding-Dropout/cond/dropout/Shape/Switch:1"], "attr": {"T": {"type": "DT_FLOAT"}, "out_type": {"type": "DT_INT32"}}}, {"name": "Transformer-2-MultiHeadSelfAttention/ExpandDims", "op": "ExpandDims", "input": ["Transformer-2-MultiHeadSelfAttention/Cast", "Transformer-2-MultiHeadSelfAttention/ExpandDims/dim"], "attr": {"Tdim": {"type": "DT_INT32"}, "T": {"type": "DT_FLOAT"}}}, {"name": "Transformer-2-MultiHeadSelfAttention-Add/concat", "op": "ConcatV2", "input": ["Transformer-2-MultiHeadSelfAttention-Add/ExpandDims", "Transformer-2-MultiHeadSelfAttention-Add/ExpandDims_1", "Transformer-2-MultiHeadSelfAttention-Add/concat/axis"], "attr": {"Tidx": {"type": "DT_INT32"}, "T": {"type": "DT_BOOL"}, "N": {"i": "2"}}}, {"name": "Embedding-Dropout/cond/dropout/random_uniform/RandomUniform", "op": "RandomUniform", "input": ["Embedding-Dropout/cond/dropout/Shape"], "attr": {"seed2": {"i": "2187574"}, "seed": {"i": "87654321"}, "dtype": {"type": "DT_FLOAT"}, "T": {"type": "DT_INT32"}}}, {"name": "Transformer-2-MultiHeadSelfAttention/ExpandDims_1", "op": "ExpandDims", "input": ["Transformer-2-MultiHeadSelfAttention/ExpandDims", "Transformer-2-MultiHeadSelfAttention/ExpandDims_1/dim"], "attr": {"T": {"type": "DT_FLOAT"}, "Tdim": {"type": "DT_INT32"}}}, {"name": "Transformer-2-MultiHeadSelfAttention-Add/All", "op": "All", "input": ["Transformer-2-MultiHeadSelfAttention-Add/concat", "Transformer-2-MultiHeadSelfAttention-Add/All/reduction_indices"], "attr": {"keep_dims": {"b": false}, "Tidx": {"type": "DT_INT32"}}}, {"name": "Embedding-Dropout/cond/dropout/random_uniform/mul", "op": "Mul", "input": ["Embedding-Dropout/cond/dropout/random_uniform/RandomUniform", "Embedding-Dropout/cond/dropout/random_uniform/sub"], "attr": {"T": {"type": "DT_FLOAT"}}}, {"name": "Transformer-2-MultiHeadSelfAttention/sub", "op": "Sub", "input": ["Transformer-2-MultiHeadSelfAttention/sub/x", "Transformer-2-MultiHeadSelfAttention/ExpandDims_1"], "attr": {"T": {"type": "DT_FLOAT"}}}, {"name": "Transformer-2-FeedForward-Add/ExpandDims", "op": "ExpandDims", "input": ["Transformer-2-MultiHeadSelfAttention-Add/All", "Transformer-2-FeedForward-Add/ExpandDims/dim"], "attr": {"Tdim": {"type": "DT_INT32"}, "T": {"type": "DT_BOOL"}}}, {"name": "Transformer-2-FeedForward-Add/ExpandDims_1", "op": "ExpandDims", "input": ["Transformer-2-MultiHeadSelfAttention-Add/All", "Transformer-2-FeedForward-Add/ExpandDims_1/dim"], "attr": {"Tdim": {"type": "DT_INT32"}, "T": {"type": "DT_BOOL"}}}, {"name": "Embedding-Dropout/cond/dropout/random_uniform", "op": "Add", "input": ["Embedding-Dropout/cond/dropout/random_uniform/mul", "Embedding-Dropout/cond/dropout/random_uniform/min"], "attr": {"T": {"type": "DT_FLOAT"}}}, {"name": "Transformer-2-MultiHeadSelfAttention/mul_1", "op": "Mul", "input": ["Transformer-2-MultiHeadSelfAttention/mul_1/x", "Transformer-2-MultiHeadSelfAttention/sub"], "attr": {"T": {"type": "DT_FLOAT"}}}, {"name": "Transformer-2-FeedForward-Add/concat", "op": "ConcatV2", "input": ["Transformer-2-FeedForward-Add/ExpandDims", "Transformer-2-FeedForward-Add/ExpandDims_1", "Transformer-2-FeedForward-Add/concat/axis"], "attr": {"N": {"i": "2"}, "T": {"type": "DT_BOOL"}, "Tidx": {"type": "DT_INT32"}}}, {"name": "Embedding-Dropout/cond/dropout/GreaterEqual", "op": "GreaterEqual", "input": ["Embedding-Dropout/cond/dropout/random_uniform", "Embedding-Dropout/cond/dropout/rate"], "attr": {"T": {"type": "DT_FLOAT"}}}, {"name": "Transformer-2-FeedForward-Add/All", "op": "All", "input": ["Transformer-2-FeedForward-Add/concat", "Transformer-2-FeedForward-Add/All/reduction_indices"], "attr": {"keep_dims": {"b": false}, "Tidx": {"type": "DT_INT32"}}}, {"name": "Embedding-Dropout/cond/dropout/Cast", "op": "Cast", "input": ["Embedding-Dropout/cond/dropout/GreaterEqual"], "attr": {"DstT": {"type": "DT_FLOAT"}, "SrcT": {"type": "DT_BOOL"}, "Truncate": {"b": false}}}, {"name": "Transformer-3-MultiHeadSelfAttention/Cast", "op": "Cast", "input": ["Transformer-2-FeedForward-Add/All"], "attr": {"Truncate": {"b": false}, "SrcT": {"type": "DT_BOOL"}, "DstT": {"type": "DT_FLOAT"}}}, {"name": "Embedding-Dropout/cond/dropout/mul_1", "op": "Mul", "input": ["Embedding-Dropout/cond/dropout/mul", "Embedding-Dropout/cond/dropout/Cast"], "attr": {"T": {"type": "DT_FLOAT"}}}, {"name": "Transformer-3-MultiHeadSelfAttention/ExpandDims", "op": "ExpandDims", "input": ["Transformer-3-MultiHeadSelfAttention/Cast", "Transformer-3-MultiHeadSelfAttention/ExpandDims/dim"], "attr": {"T": {"type": "DT_FLOAT"}, "Tdim": {"type": "DT_INT32"}}}, {"name": "Embedding-Dropout/cond/Merge", "op": "Merge", "input": ["Embedding-Dropout/cond/Switch_1", "Embedding-Dropout/cond/dropout/mul_1"], "attr": {"N": {"i": "2"}, "T": {"type": "DT_FLOAT"}}}, {"name": "Transformer-3-MultiHeadSelfAttention/ExpandDims_1", "op": "ExpandDims", "input": ["Transformer-3-MultiHeadSelfAttention/ExpandDims", "Transformer-3-MultiHeadSelfAttention/ExpandDims_1/dim"], "attr": {"Tdim": {"type": "DT_INT32"}, "T": {"type": "DT_FLOAT"}}}, {"name": "Transformer-0-MultiHeadSelfAttention/dense_3/Reshape", "op": "Reshape", "input": ["Embedding-Dropout/cond/Merge", "Transformer-0-MultiHeadSelfAttention/dense_3/Reshape/shape"], "attr": {"T": {"type": "DT_FLOAT"}, "Tshape": {"type": "DT_INT32"}}}, {"name": "Transformer-0-MultiHeadSelfAttention/dense_3/Shape", "op": "Shape", "input": ["Embedding-Dropout/cond/Merge"], "attr": {"T": {"type": "DT_FLOAT"}, "out_type": {"type": "DT_INT32"}}}, {"name": "Transformer-0-MultiHeadSelfAttention/Shape_2", "op": "Shape", "input": ["Embedding-Dropout/cond/Merge"], "attr": {"out_type": {"type": "DT_INT32"}, "T": {"type": "DT_FLOAT"}}}, {"name": "Transformer-0-MultiHeadSelfAttention/dense_1/Reshape", "op": "Reshape", "input": ["Embedding-Dropout/cond/Merge", "Transformer-0-MultiHeadSelfAttention/dense_1/Reshape/shape"], "attr": {"Tshape": {"type": "DT_INT32"}, "T": {"type": "DT_FLOAT"}}}, {"name": "Transformer-0-MultiHeadSelfAttention/dense_1/Shape", "op": "Shape", "input": ["Embedding-Dropout/cond/Merge"], "attr": {"T": {"type": "DT_FLOAT"}, "out_type": {"type": "DT_INT32"}}}, {"name": "Transformer-0-MultiHeadSelfAttention/Shape", "op": "Shape", "input": ["Embedding-Dropout/cond/Merge"], "attr": {"T": {"type": "DT_FLOAT"}, "out_type": {"type": "DT_INT32"}}}, {"name": "Transformer-0-MultiHeadSelfAttention/dense_2/Reshape", "op": "Reshape", "input": ["Embedding-Dropout/cond/Merge", "Transformer-0-MultiHeadSelfAttention/dense_2/Reshape/shape"], "attr": {"T": {"type": "DT_FLOAT"}, "Tshape": {"type": "DT_INT32"}}}, {"name": "Transformer-0-MultiHeadSelfAttention/dense_2/Shape", "op": "Shape", "input": ["Embedding-Dropout/cond/Merge"], "attr": {"T": {"type": "DT_FLOAT"}, "out_type": {"type": "DT_INT32"}}}, {"name": "Transformer-0-MultiHeadSelfAttention/Shape_1", "op": "Shape", "input": ["Embedding-Dropout/cond/Merge"], "attr": {"out_type": {"type": "DT_INT32"}, "T": {"type": "DT_FLOAT"}}}, {"name": "Transformer-3-MultiHeadSelfAttention/sub", "op": "Sub", "input": ["Transformer-3-MultiHeadSelfAttention/sub/x", "Transformer-3-MultiHeadSelfAttention/ExpandDims_1"], "attr": {"T": {"type": "DT_FLOAT"}}}, {"name": "Transformer-0-MultiHeadSelfAttention/dense_3/MatMul", "op": "MatMul", "input": ["Transformer-0-MultiHeadSelfAttention/dense_3/Reshape", "Transformer-0-MultiHeadSelfAttention/dense_3/Reshape_1"], "device": "/device:CPU:0", "attr": {"transpose_b": {"b": false}, "T": {"type": "DT_FLOAT"}, "transpose_a": {"b": false}}}, {"name": "Transformer-0-MultiHeadSelfAttention/dense_3/unstack", "op": "Unpack", "input": ["Transformer-0-MultiHeadSelfAttention/dense_3/Shape"], "attr": {"axis": {"i": "0"}, "T": {"type": "DT_INT32"}, "num": {"i": "3"}}}, {"name": "Transformer-0-MultiHeadSelfAttention/strided_slice_2", "op": "StridedSlice", "input": ["Transformer-0-MultiHeadSelfAttention/Shape_2", "Transformer-0-MultiHeadSelfAttention/strided_slice_2/stack", "Transformer-0-MultiHeadSelfAttention/strided_slice_2/stack_1", "Transformer-0-MultiHeadSelfAttention/strided_slice_2/stack_2"], "attr": {"new_axis_mask": {"i": "0"}, "shrink_axis_mask": {"i": "1"}, "end_mask": {"i": "0"}, "Index": {"type": "DT_INT32"}, "T": {"type": "DT_INT32"}, "ellipsis_mask": {"i": "0"}, "begin_mask": {"i": "0"}}}, {"name": "Transformer-0-MultiHeadSelfAttention/dense_1/MatMul", "op": "MatMul", "input": ["Transformer-0-MultiHeadSelfAttention/dense_1/Reshape", "Transformer-0-MultiHeadSelfAttention/dense_1/Reshape_1"], "device": "/device:CPU:0", "attr": {"transpose_a": {"b": false}, "transpose_b": {"b": false}, "T": {"type": "DT_FLOAT"}}}, {"name": "Transformer-0-MultiHeadSelfAttention/dense_1/unstack", "op": "Unpack", "input": ["Transformer-0-MultiHeadSelfAttention/dense_1/Shape"], "attr": {"axis": {"i": "0"}, "num": {"i": "3"}, "T": {"type": "DT_INT32"}}}, {"name": "Transformer-0-MultiHeadSelfAttention/strided_slice", "op": "StridedSlice", "input": ["Transformer-0-MultiHeadSelfAttention/Shape", "Transformer-0-MultiHeadSelfAttention/strided_slice/stack", "Transformer-0-MultiHeadSelfAttention/strided_slice/stack_1", "Transformer-0-MultiHeadSelfAttention/strided_slice/stack_2"], "attr": {"ellipsis_mask": {"i": "0"}, "shrink_axis_mask": {"i": "1"}, "T": {"type": "DT_INT32"}, "end_mask": {"i": "0"}, "Index": {"type": "DT_INT32"}, "new_axis_mask": {"i": "0"}, "begin_mask": {"i": "0"}}}, {"name": "Transformer-0-MultiHeadSelfAttention/dense_2/MatMul", "op": "MatMul", "input": ["Transformer-0-MultiHeadSelfAttention/dense_2/Reshape", "Transformer-0-MultiHeadSelfAttention/dense_2/Reshape_1"], "device": "/device:CPU:0", "attr": {"T": {"type": "DT_FLOAT"}, "transpose_b": {"b": false}, "transpose_a": {"b": false}}}, {"name": "Transformer-0-MultiHeadSelfAttention/dense_2/unstack", "op": "Unpack", "input": ["Transformer-0-MultiHeadSelfAttention/dense_2/Shape"], "attr": {"axis": {"i": "0"}, "T": {"type": "DT_INT32"}, "num": {"i": "3"}}}, {"name": "Transformer-0-MultiHeadSelfAttention/strided_slice_1", "op": "StridedSlice", "input": ["Transformer-0-MultiHeadSelfAttention/Shape_1", "Transformer-0-MultiHeadSelfAttention/strided_slice_1/stack", "Transformer-0-MultiHeadSelfAttention/strided_slice_1/stack_1", "Transformer-0-MultiHeadSelfAttention/strided_slice_1/stack_2"], "attr": {"ellipsis_mask": {"i": "0"}, "Index": {"type": "DT_INT32"}, "new_axis_mask": {"i": "0"}, "shrink_axis_mask": {"i": "1"}, "begin_mask": {"i": "0"}, "T": {"type": "DT_INT32"}, "end_mask": {"i": "0"}}}, {"name": "Transformer-3-MultiHeadSelfAttention/mul_1", "op": "Mul", "input": ["Transformer-3-MultiHeadSelfAttention/mul_1/x", "Transformer-3-MultiHeadSelfAttention/sub"], "attr": {"T": {"type": "DT_FLOAT"}}}, {"name": "Transformer-0-MultiHeadSelfAttention/dense_3/Reshape_2/shape", "op": "Pack", "input": ["Transformer-0-MultiHeadSelfAttention/dense_3/unstack", "Transformer-0-MultiHeadSelfAttention/dense_3/unstack:1", "Transformer-0-MultiHeadSelfAttention/dense_3/Reshape_2/shape/2"], "attr": {"N": {"i": "3"}, "T": {"type": "DT_INT32"}, "axis": {"i": "0"}}}, {"name": "Transformer-0-MultiHeadSelfAttention/Reshape_2/shape", "op": "Pack", "input": ["Transformer-0-MultiHeadSelfAttention/Reshape_2/shape/0", "Transformer-0-MultiHeadSelfAttention/strided_slice_2", "Transformer-0-MultiHeadSelfAttention/Reshape_2/shape/2", "Transformer-0-MultiHeadSelfAttention/Reshape_2/shape/3"], "attr": {"N": {"i": "4"}, "axis": {"i": "0"}, "T": {"type": "DT_INT32"}}}, {"name": "Transformer-0-MultiHeadSelfAttention/dense_1/Reshape_2/shape", "op": "Pack", "input": ["Transformer-0-MultiHeadSelfAttention/dense_1/unstack", "Transformer-0-MultiHeadSelfAttention/dense_1/unstack:1", "Transformer-0-MultiHeadSelfAttention/dense_1/Reshape_2/shape/2"], "attr": {"axis": {"i": "0"}, "T": {"type": "DT_INT32"}, "N": {"i": "3"}}}, {"name": "Transformer-0-MultiHeadSelfAttention/Reshape/shape", "op": "Pack", "input": ["Transformer-0-MultiHeadSelfAttention/Reshape/shape/0", "Transformer-0-MultiHeadSelfAttention/strided_slice", "Transformer-0-MultiHeadSelfAttention/Reshape/shape/2", "Transformer-0-MultiHeadSelfAttention/Reshape/shape/3"], "attr": {"axis": {"i": "0"}, "T": {"type": "DT_INT32"}, "N": {"i": "4"}}}, {"name": "Transformer-0-MultiHeadSelfAttention/dense_2/Reshape_2/shape", "op": "Pack", "input": ["Transformer-0-MultiHeadSelfAttention/dense_2/unstack", "Transformer-0-MultiHeadSelfAttention/dense_2/unstack:1", "Transformer-0-MultiHeadSelfAttention/dense_2/Reshape_2/shape/2"], "attr": {"N": {"i": "3"}, "T": {"type": "DT_INT32"}, "axis": {"i": "0"}}}, {"name": "Transformer-0-MultiHeadSelfAttention/Reshape_1/shape", "op": "Pack", "input": ["Transformer-0-MultiHeadSelfAttention/Reshape_1/shape/0", "Transformer-0-MultiHeadSelfAttention/strided_slice_1", "Transformer-0-MultiHeadSelfAttention/Reshape_1/shape/2", "Transformer-0-MultiHeadSelfAttention/Reshape_1/shape/3"], "attr": {"T": {"type": "DT_INT32"}, "axis": {"i": "0"}, "N": {"i": "4"}}}, {"name": "Transformer-0-MultiHeadSelfAttention/dense_3/Reshape_2", "op": "Reshape", "input": ["Transformer-0-MultiHeadSelfAttention/dense_3/MatMul", "Transformer-0-MultiHeadSelfAttention/dense_3/Reshape_2/shape"], "attr": {"T": {"type": "DT_FLOAT"}, "Tshape": {"type": "DT_INT32"}}}, {"name": "Transformer-0-MultiHeadSelfAttention/dense_1/Reshape_2", "op": "Reshape", "input": ["Transformer-0-MultiHeadSelfAttention/dense_1/MatMul", "Transformer-0-MultiHeadSelfAttention/dense_1/Reshape_2/shape"], "attr": {"T": {"type": "DT_FLOAT"}, "Tshape": {"type": "DT_INT32"}}}, {"name": "Transformer-0-MultiHeadSelfAttention/dense_2/Reshape_2", "op": "Reshape", "input": ["Transformer-0-MultiHeadSelfAttention/dense_2/MatMul", "Transformer-0-MultiHeadSelfAttention/dense_2/Reshape_2/shape"], "attr": {"T": {"type": "DT_FLOAT"}, "Tshape": {"type": "DT_INT32"}}}, {"name": "Transformer-0-MultiHeadSelfAttention/dense_3/add", "op": "AddV2", "input": ["Transformer-0-MultiHeadSelfAttention/dense_3/Reshape_2", "Transformer-0-MultiHeadSelfAttention/dense_3/Reshape_3"], "attr": {"T": {"type": "DT_FLOAT"}}}, {"name": "Transformer-0-MultiHeadSelfAttention/dense_1/add", "op": "AddV2", "input": ["Transformer-0-MultiHeadSelfAttention/dense_1/Reshape_2", "Transformer-0-MultiHeadSelfAttention/dense_1/Reshape_3"], "attr": {"T": {"type": "DT_FLOAT"}}}, {"name": "Transformer-0-MultiHeadSelfAttention/dense_2/add", "op": "AddV2", "input": ["Transformer-0-MultiHeadSelfAttention/dense_2/Reshape_2", "Transformer-0-MultiHeadSelfAttention/dense_2/Reshape_3"], "attr": {"T": {"type": "DT_FLOAT"}}}, {"name": "Transformer-0-MultiHeadSelfAttention/Reshape_2", "op": "Reshape", "input": ["Transformer-0-MultiHeadSelfAttention/dense_3/add", "Transformer-0-MultiHeadSelfAttention/Reshape_2/shape"], "attr": {"T": {"type": "DT_FLOAT"}, "Tshape": {"type": "DT_INT32"}}}, {"name": "Transformer-0-MultiHeadSelfAttention/Reshape", "op": "Reshape", "input": ["Transformer-0-MultiHeadSelfAttention/dense_1/add", "Transformer-0-MultiHeadSelfAttention/Reshape/shape"], "attr": {"Tshape": {"type": "DT_INT32"}, "T": {"type": "DT_FLOAT"}}}, {"name": "Transformer-0-MultiHeadSelfAttention/Reshape_1", "op": "Reshape", "input": ["Transformer-0-MultiHeadSelfAttention/dense_2/add", "Transformer-0-MultiHeadSelfAttention/Reshape_1/shape"], "attr": {"Tshape": {"type": "DT_INT32"}, "T": {"type": "DT_FLOAT"}}}, {"name": "Transformer-0-MultiHeadSelfAttention/einsum_1/transpose", "op": "Transpose", "input": ["Transformer-0-MultiHeadSelfAttention/Reshape_2", "Transformer-0-MultiHeadSelfAttention/einsum_1/transpose/perm"], "attr": {"Tperm": {"type": "DT_INT32"}, "T": {"type": "DT_FLOAT"}}}, {"name": "Transformer-0-MultiHeadSelfAttention/einsum/transpose", "op": "Transpose", "input": ["Transformer-0-MultiHeadSelfAttention/Reshape", "Transformer-0-MultiHeadSelfAttention/einsum/transpose/perm"], "attr": {"Tperm": {"type": "DT_INT32"}, "T": {"type": "DT_FLOAT"}}}, {"name": "Transformer-0-MultiHeadSelfAttention/einsum/transpose_1", "op": "Transpose", "input": ["Transformer-0-MultiHeadSelfAttention/Reshape_1", "Transformer-0-MultiHeadSelfAttention/einsum/transpose_1/perm"], "attr": {"T": {"type": "DT_FLOAT"}, "Tperm": {"type": "DT_INT32"}}}, {"name": "Transformer-0-MultiHeadSelfAttention/einsum_1/Shape_1", "op": "Shape", "input": ["Transformer-0-MultiHeadSelfAttention/einsum_1/transpose"], "attr": {"T": {"type": "DT_FLOAT"}, "out_type": {"type": "DT_INT32"}}}, {"name": "Transformer-0-MultiHeadSelfAttention/einsum/Shape", "op": "Shape", "input": ["Transformer-0-MultiHeadSelfAttention/einsum/transpose"], "attr": {"out_type": {"type": "DT_INT32"}, "T": {"type": "DT_FLOAT"}}}, {"name": "Transformer-0-MultiHeadSelfAttention/einsum/Shape_1", "op": "Shape", "input": ["Transformer-0-MultiHeadSelfAttention/einsum/transpose_1"], "attr": {"T": {"type": "DT_FLOAT"}, "out_type": {"type": "DT_INT32"}}}, {"name": "Transformer-0-MultiHeadSelfAttention/einsum_1/strided_slice_3", "op": "StridedSlice", "input": ["Transformer-0-MultiHeadSelfAttention/einsum_1/Shape_1", "Transformer-0-MultiHeadSelfAttention/einsum_1/strided_slice_3/stack", "Transformer-0-MultiHeadSelfAttention/einsum_1/strided_slice_3/stack_1", "Transformer-0-MultiHeadSelfAttention/einsum_1/strided_slice_3/stack_2"], "attr": {"ellipsis_mask": {"i": "0"}, "begin_mask": {"i": "0"}, "shrink_axis_mask": {"i": "1"}, "Index": {"type": "DT_INT32"}, "T": {"type": "DT_INT32"}, "end_mask": {"i": "0"}, "new_axis_mask": {"i": "0"}}}, {"name": "Transformer-0-MultiHeadSelfAttention/einsum/strided_slice", "op": "StridedSlice", "input": ["Transformer-0-MultiHeadSelfAttention/einsum/Shape", "Transformer-0-MultiHeadSelfAttention/einsum/strided_slice/stack", "Transformer-0-MultiHeadSelfAttention/einsum/strided_slice/stack_1", "Transformer-0-MultiHeadSelfAttention/einsum/strided_slice/stack_2"], "attr": {"ellipsis_mask": {"i": "0"}, "T": {"type": "DT_INT32"}, "shrink_axis_mask": {"i": "1"}, "begin_mask": {"i": "0"}, "end_mask": {"i": "0"}, "Index": {"type": "DT_INT32"}, "new_axis_mask": {"i": "0"}}}, {"name": "Transformer-0-MultiHeadSelfAttention/einsum/strided_slice_1", "op": "StridedSlice", "input": ["Transformer-0-MultiHeadSelfAttention/einsum/Shape", "Transformer-0-MultiHeadSelfAttention/einsum/strided_slice_1/stack", "Transformer-0-MultiHeadSelfAttention/einsum/strided_slice_1/stack_1", "Transformer-0-MultiHeadSelfAttention/einsum/strided_slice_1/stack_2"], "attr": {"shrink_axis_mask": {"i": "1"}, "new_axis_mask": {"i": "0"}, "end_mask": {"i": "0"}, "ellipsis_mask": {"i": "0"}, "T": {"type": "DT_INT32"}, "Index": {"type": "DT_INT32"}, "begin_mask": {"i": "0"}}}, {"name": "Transformer-0-MultiHeadSelfAttention/einsum/strided_slice_2", "op": "StridedSlice", "input": ["Transformer-0-MultiHeadSelfAttention/einsum/Shape_1", "Transformer-0-MultiHeadSelfAttention/einsum/strided_slice_2/stack", "Transformer-0-MultiHeadSelfAttention/einsum/strided_slice_2/stack_1", "Transformer-0-MultiHeadSelfAttention/einsum/strided_slice_2/stack_2"], "attr": {"new_axis_mask": {"i": "0"}, "Index": {"type": "DT_INT32"}, "T": {"type": "DT_INT32"}, "begin_mask": {"i": "0"}, "ellipsis_mask": {"i": "0"}, "shrink_axis_mask": {"i": "1"}, "end_mask": {"i": "0"}}}, {"name": "Transformer-0-MultiHeadSelfAttention/einsum/strided_slice_3", "op": "StridedSlice", "input": ["Transformer-0-MultiHeadSelfAttention/einsum/Shape_1", "Transformer-0-MultiHeadSelfAttention/einsum/strided_slice_3/stack", "Transformer-0-MultiHeadSelfAttention/einsum/strided_slice_3/stack_1", "Transformer-0-MultiHeadSelfAttention/einsum/strided_slice_3/stack_2"], "attr": {"begin_mask": {"i": "0"}, "end_mask": {"i": "0"}, "Index": {"type": "DT_INT32"}, "new_axis_mask": {"i": "0"}, "T": {"type": "DT_INT32"}, "ellipsis_mask": {"i": "0"}, "shrink_axis_mask": {"i": "1"}}}, {"name": "Transformer-0-MultiHeadSelfAttention/einsum/Reshape/shape", "op": "Pack", "input": ["Transformer-0-MultiHeadSelfAttention/einsum/strided_slice", "Transformer-0-MultiHeadSelfAttention/einsum/Reshape/shape/1", "Transformer-0-MultiHeadSelfAttention/einsum/strided_slice_1", "Transformer-0-MultiHeadSelfAttention/einsum/Reshape/shape/3"], "attr": {"axis": {"i": "0"}, "N": {"i": "4"}, "T": {"type": "DT_INT32"}}}, {"name": "Transformer-0-MultiHeadSelfAttention/einsum/Reshape_1/shape", "op": "Pack", "input": ["Transformer-0-MultiHeadSelfAttention/einsum/strided_slice_2", "Transformer-0-MultiHeadSelfAttention/einsum/Reshape_1/shape/1", "Transformer-0-MultiHeadSelfAttention/einsum/Reshape_1/shape/2", "Transformer-0-MultiHeadSelfAttention/einsum/strided_slice_3"], "attr": {"N": {"i": "4"}, "axis": {"i": "0"}, "T": {"type": "DT_INT32"}}}, {"name": "Transformer-0-MultiHeadSelfAttention/einsum/Reshape_2/shape", "op": "Pack", "input": ["Transformer-0-MultiHeadSelfAttention/einsum/strided_slice", "Transformer-0-MultiHeadSelfAttention/einsum/Reshape_2/shape/1", "Transformer-0-MultiHeadSelfAttention/einsum/strided_slice_1", "Transformer-0-MultiHeadSelfAttention/einsum/strided_slice_3"], "attr": {"N": {"i": "4"}, "axis": {"i": "0"}, "T": {"type": "DT_INT32"}}}, {"name": "Transformer-0-MultiHeadSelfAttention/einsum/Reshape", "op": "Reshape", "input": ["Transformer-0-MultiHeadSelfAttention/einsum/transpose", "Transformer-0-MultiHeadSelfAttention/einsum/Reshape/shape"], "attr": {"Tshape": {"type": "DT_INT32"}, "T": {"type": "DT_FLOAT"}}}, {"name": "Transformer-0-MultiHeadSelfAttention/einsum/Reshape_1", "op": "Reshape", "input": ["Transformer-0-MultiHeadSelfAttention/einsum/transpose_1", "Transformer-0-MultiHeadSelfAttention/einsum/Reshape_1/shape"], "attr": {"T": {"type": "DT_FLOAT"}, "Tshape": {"type": "DT_INT32"}}}, {"name": "Transformer-0-MultiHeadSelfAttention/einsum/MatMul", "op": "BatchMatMulV2", "input": ["Transformer-0-MultiHeadSelfAttention/einsum/Reshape", "Transformer-0-MultiHeadSelfAttention/einsum/Reshape_1"], "attr": {"adj_y": {"b": false}, "adj_x": {"b": false}, "T": {"type": "DT_FLOAT"}}}, {"name": "Transformer-0-MultiHeadSelfAttention/einsum/Reshape_2", "op": "Reshape", "input": ["Transformer-0-MultiHeadSelfAttention/einsum/MatMul", "Transformer-0-MultiHeadSelfAttention/einsum/Reshape_2/shape"], "attr": {"T": {"type": "DT_FLOAT"}, "Tshape": {"type": "DT_INT32"}}}, {"name": "Transformer-0-MultiHeadSelfAttention/truediv", "op": "Mul", "input": ["Transformer-0-MultiHeadSelfAttention/einsum/Reshape_2", "ConstantFolding/Transformer-0-MultiHeadSelfAttention/truediv_recip"], "attr": {"T": {"type": "DT_FLOAT"}}}, {"name": "Transformer-0-MultiHeadSelfAttention/mul", "op": "Mul", "input": ["Transformer-0-MultiHeadSelfAttention/truediv", "Transformer-0-MultiHeadSelfAttention/ExpandDims_1"], "attr": {"T": {"type": "DT_FLOAT"}}}, {"name": "Transformer-0-MultiHeadSelfAttention/add", "op": "AddV2", "input": ["Transformer-0-MultiHeadSelfAttention/mul", "Transformer-0-MultiHeadSelfAttention/mul_1"], "attr": {"T": {"type": "DT_FLOAT"}}}, {"name": "Transformer-0-MultiHeadSelfAttention/Softmax", "op": "Softmax", "input": ["Transformer-0-MultiHeadSelfAttention/add"], "attr": {"T": {"type": "DT_FLOAT"}}}, {"name": "Transformer-0-MultiHeadSelfAttention/einsum_1/Shape", "op": "Shape", "input": ["Transformer-0-MultiHeadSelfAttention/Softmax"], "attr": {"T": {"type": "DT_FLOAT"}, "out_type": {"type": "DT_INT32"}}}, {"name": "Transformer-0-MultiHeadSelfAttention/einsum_1/strided_slice_2", "op": "StridedSlice", "input": ["Transformer-0-MultiHeadSelfAttention/einsum_1/Shape", "Transformer-0-MultiHeadSelfAttention/einsum_1/strided_slice_2/stack", "Transformer-0-MultiHeadSelfAttention/einsum_1/strided_slice_2/stack_1", "Transformer-0-MultiHeadSelfAttention/einsum_1/strided_slice_2/stack_2"], "attr": {"end_mask": {"i": "0"}, "ellipsis_mask": {"i": "0"}, "new_axis_mask": {"i": "0"}, "Index": {"type": "DT_INT32"}, "begin_mask": {"i": "0"}, "T": {"type": "DT_INT32"}, "shrink_axis_mask": {"i": "1"}}}, {"name": "Transformer-0-MultiHeadSelfAttention/einsum_1/strided_slice", "op": "StridedSlice", "input": ["Transformer-0-MultiHeadSelfAttention/einsum_1/Shape", "Transformer-0-MultiHeadSelfAttention/einsum_1/strided_slice/stack", "Transformer-0-MultiHeadSelfAttention/einsum_1/strided_slice/stack_1", "Transformer-0-MultiHeadSelfAttention/einsum_1/strided_slice/stack_2"], "attr": {"Index": {"type": "DT_INT32"}, "end_mask": {"i": "0"}, "ellipsis_mask": {"i": "0"}, "begin_mask": {"i": "0"}, "new_axis_mask": {"i": "0"}, "shrink_axis_mask": {"i": "1"}, "T": {"type": "DT_INT32"}}}, {"name": "Transformer-0-MultiHeadSelfAttention/einsum_1/strided_slice_1", "op": "StridedSlice", "input": ["Transformer-0-MultiHeadSelfAttention/einsum_1/Shape", "Transformer-0-MultiHeadSelfAttention/einsum_1/strided_slice_1/stack", "Transformer-0-MultiHeadSelfAttention/einsum_1/strided_slice_1/stack_1", "Transformer-0-MultiHeadSelfAttention/einsum_1/strided_slice_1/stack_2"], "attr": {"end_mask": {"i": "0"}, "T": {"type": "DT_INT32"}, "ellipsis_mask": {"i": "0"}, "Index": {"type": "DT_INT32"}, "shrink_axis_mask": {"i": "1"}, "begin_mask": {"i": "0"}, "new_axis_mask": {"i": "0"}}}, {"name": "Transformer-0-MultiHeadSelfAttention/einsum_1/Reshape_1/shape", "op": "Pack", "input": ["Transformer-0-MultiHeadSelfAttention/einsum_1/strided…
], "dtype": "int32"}, {"name": "Transformer-3-MultiHeadSelfAttention/Reshape_2/shape/2", "shape": [], "dtype": "int32"}, {"name": "Transformer-3-MultiHeadSelfAttention/Reshape_2/shape/3", "shape": [], "dtype": "int32"}, {"name": "Transformer-3-MultiHeadSelfAttention/einsum_1/transpose/perm", "shape": [4], "dtype": "int32"}, {"name": "Transformer-3-MultiHeadSelfAttention/einsum_1/strided_slice_3/stack", "shape": [1], "dtype": "int32"}, {"name": "Transformer-3-MultiHeadSelfAttention/einsum_1/strided_slice_3/stack_1", "shape": [1], "dtype": "int32"}, {"name": "Transformer-3-MultiHeadSelfAttention/einsum_1/strided_slice_3/stack_2", "shape": [1], "dtype": "int32"}, {"name": "Transformer-3-MultiHeadSelfAttention/einsum_1/Reshape_1/shape/1", "shape": [], "dtype": "int32"}, {"name": "Transformer-3-MultiHeadSelfAttention/einsum_1/strided_slice_2/stack", "shape": [1], "dtype": "int32"}, {"name": "Transformer-3-MultiHeadSelfAttention/einsum_1/strided_slice_2/stack_1", "shape": [1], "dtype": "int32"}, {"name": "Transformer-3-MultiHeadSelfAttention/einsum_1/strided_slice_2/stack_2", "shape": [1], "dtype": "int32"}, {"name": "Transformer-3-MultiHeadSelfAttention/einsum_1/Reshape_1/shape/3", "shape": [], "dtype": "int32"}, {"name": "Transformer-3-MultiHeadSelfAttention/einsum_1/strided_slice/stack", "shape": [1], "dtype": "int32"}, {"name": "Transformer-3-MultiHeadSelfAttention/einsum_1/strided_slice/stack_1", "shape": [1], "dtype": "int32"}, {"name": "Transformer-3-MultiHeadSelfAttention/einsum_1/strided_slice/stack_2", "shape": [1], "dtype": "int32"}, {"name": "Transformer-3-MultiHeadSelfAttention/einsum_1/Reshape_2/shape/1", "shape": [], "dtype": "int32"}, {"name": "Transformer-3-MultiHeadSelfAttention/einsum/Reshape/shape/1", "shape": [], "dtype": "int32"}, {"name": "Transformer-3-MultiHeadSelfAttention/einsum/Reshape/shape/3", "shape": [], "dtype": "int32"}, {"name": "Transformer-3-MultiHeadSelfAttention/einsum/strided_slice_2/stack", "shape": [1], "dtype": "int32"}, {"name": "Transformer-3-MultiHeadSelfAttention/einsum/strided_slice_2/stack_1", "shape": [1], "dtype": "int32"}, {"name": "Transformer-3-MultiHeadSelfAttention/einsum/strided_slice_2/stack_2", "shape": [1], "dtype": "int32"}, {"name": "Transformer-3-MultiHeadSelfAttention/einsum/Reshape_1/shape/1", "shape": [], "dtype": "int32"}, {"name": "Transformer-3-MultiHeadSelfAttention/einsum/Reshape_1/shape/2", "shape": [], "dtype": "int32"}, {"name": "Transformer-3-MultiHeadSelfAttention/einsum/strided_slice/stack", "shape": [1], "dtype": "int32"}, {"name": "Transformer-3-MultiHeadSelfAttention/einsum/strided_slice/stack_1", "shape": [1], "dtype": "int32"}, {"name": "Transformer-3-MultiHeadSelfAttention/einsum/strided_slice/stack_2", "shape": [1], "dtype": "int32"}, {"name": "Transformer-3-MultiHeadSelfAttention/einsum/Reshape_2/shape/1", "shape": [], "dtype": "int32"}, {"name": "Transformer-3-MultiHeadSelfAttention/dense_19/Reshape/shape", "shape": [2], "dtype": "int32"}, {"name": "Transformer-3-MultiHeadSelfAttention/dense_19/Reshape_1", "shape": [256, 256], "dtype": "float32"}, {"name": "Transformer-3-MultiHeadSelfAttention/dense_19/Reshape_2/shape/2", "shape": [], "dtype": "int32"}, {"name": "Transformer-3-MultiHeadSelfAttention/dense_19/Reshape_3", "shape": [1, 1, 256], "dtype": "float32"}, {"name": "Transformer-3-MultiHeadSelfAttention/Reshape/shape/0", "shape": [], "dtype": "int32"}, {"name": "Transformer-3-MultiHeadSelfAttention/strided_slice/stack", "shape": [1], "dtype": "int32"}, {"name": "Transformer-3-MultiHeadSelfAttention/strided_slice/stack_1", "shape": [1], "dtype": "int32"}, {"name": "Transformer-3-MultiHeadSelfAttention/strided_slice/stack_2", "shape": [1], "dtype": "int32"}, {"name": "Transformer-3-MultiHeadSelfAttention/Reshape/shape/2", "shape": [], "dtype": "int32"}, {"name": "Transformer-3-MultiHeadSelfAttention/Reshape/shape/3", "shape": [], "dtype": "int32"}, {"name": "Transformer-3-MultiHeadSelfAttention/einsum/transpose/perm", "shape": [4], "dtype": "int32"}, {"name": "Transformer-3-MultiHeadSelfAttention/einsum/strided_slice_1/stack", "shape": [1], "dtype": "int32"}, {"name": "Transformer-3-MultiHeadSelfAttention/einsum/strided_slice_1/stack_1", "shape": [1], "dtype": "int32"}, {"name": "Transformer-3-MultiHeadSelfAttention/einsum/strided_slice_1/stack_2", "shape": [1], "dtype": "int32"}, {"name": "Transformer-3-MultiHeadSelfAttention/dense_20/Reshape/shape", "shape": [2], "dtype": "int32"}, {"name": "Transformer-3-MultiHeadSelfAttention/dense_20/Reshape_1", "shape": [256, 256], "dtype": "float32"}, {"name": "Transformer-3-MultiHeadSelfAttention/dense_20/Reshape_2/shape/2", "shape": [], "dtype": "int32"}, {"name": "Transformer-3-MultiHeadSelfAttention/dense_20/Reshape_3", "shape": [1, 1, 256], "dtype": "float32"}, {"name": "Transformer-3-MultiHeadSelfAttention/Reshape_1/shape/0", "shape": [], "dtype": "int32"}, {"name": "Transformer-2-FeedForward-Norm/gamma", "shape": [256], "dtype": "float32"}, {"name": "Transformer-2-FeedForward/dense_18/Reshape/shape", "shape": [2], "dtype": "int32"}, {"name": "Transformer-2-FeedForward/dense_18/Reshape_1", "shape": [512, 256], "dtype": "float32"}, {"name": "Transformer-2-FeedForward/dense_17/mul/x", "shape": [], "dtype": "float32"}, {"name": "Transformer-2-FeedForward/dense_17/add_1/x", "shape": [], "dtype": "float32"}, {"name": "Transformer-2-FeedForward/dense_17/Reshape/shape", "shape": [2], "dtype": "int32"}, {"name": "Transformer-2-FeedForward/dense_17/Reshape_1", "shape": [256, 512], "dtype": "float32"}, {"name": "Transformer-2-MultiHeadSelfAttention-Norm/gamma", "shape": [256], "dtype": "float32"}, {"name": "Transformer-2-MultiHeadSelfAttention/dense_16/Reshape/shape", "shape": [2], "dtype": "int32"}, {"name": "Transformer-2-MultiHeadSelfAttention/dense_16/Reshape_1", "shape": [256, 256], "dtype": "float32"}, {"name": "Transformer-2-MultiHeadSelfAttention/Reshape_3/shape/0", "shape": [], "dtype": "int32"}, {"name": "Transformer-2-MultiHeadSelfAttention/einsum_1/Reshape/shape/1", "shape": [], "dtype": "int32"}, {"name": "Transformer-2-MultiHeadSelfAttention/dense_15/Reshape/shape", "shape": [2], "dtype": "int32"}, {"name": "Transformer-2-MultiHeadSelfAttention/dense_15/Reshape_1", "shape": [256, 256], "dtype": "float32"}, {"name": "Transformer-2-MultiHeadSelfAttention/dense_15/Reshape_2/shape/2", "shape": [], "dtype": "int32"}, {"name": "Transformer-2-MultiHeadSelfAttention/dense_15/Reshape_3", "shape": [1, 1, 256], "dtype": "float32"}, {"name": "Transformer-2-MultiHeadSelfAttention/Reshape_2/shape/0", "shape": [], "dtype": "int32"}, {"name": "Transformer-2-MultiHeadSelfAttention/strided_slice_2/stack", "shape": [1], "dtype": "int32"}, {"name": "Transformer-2-MultiHeadSelfAttention/strided_slice_2/stack_1", "shape": [1], "dtype": "int32"}, {"name": "Transformer-2-MultiHeadSelfAttention/strided_slice_2/stack_2", "shape": [1], "dtype": "int32"}, {"name": "Transformer-2-MultiHeadSelfAttention/Reshape_2/shape/2", "shape": [], "dtype": "int32"}, {"name": "Transformer-2-MultiHeadSelfAttention/Reshape_2/shape/3", "shape": [], "dtype": "int32"}, {"name": "Transformer-2-MultiHeadSelfAttention/einsum_1/transpose/perm", "shape": [4], "dtype": "int32"}, {"name": "Transformer-2-MultiHeadSelfAttention/einsum_1/strided_slice_3/stack", "shape": [1], "dtype": "int32"}, {"name": "Transformer-2-MultiHeadSelfAttention/einsum_1/strided_slice_3/stack_1", "shape": [1], "dtype": "int32"}, {"name": "Transformer-2-MultiHeadSelfAttention/einsum_1/strided_slice_3/stack_2", "shape": [1], "dtype": "int32"}, {"name": "Transformer-2-MultiHeadSelfAttention/einsum_1/Reshape_1/shape/1", "shape": [], "dtype": "int32"}, {"name": "Transformer-2-MultiHeadSelfAttention/einsum_1/strided_slice_2/stack", "shape": [1], "dtype": "int32"}, {"name": "Transformer-2-MultiHeadSelfAttention/einsum_1/strided_slice_2/stack_1", "shape": [1], "dtype": "int32"}, {"name": "Transformer-2-MultiHeadSelfAttention/einsum_1/strided_slice_2/stack_2", "shape": [1], "dtype": "int32"}, {"name": "Transformer-2-MultiHeadSelfAttention/einsum_1/Reshape_1/shape/3", "shape": [], "dtype": "int32"}, {"name": "Transformer-2-MultiHeadSelfAttention/einsum_1/strided_slice/stack", "shape": [1], "dtype": "int32"}, {"name": "Transformer-2-MultiHeadSelfAttention/einsum_1/strided_slice/stack_1", "shape": [1], "dtype": "int32"}, {"name": "Transformer-2-MultiHeadSelfAttention/einsum_1/strided_slice/stack_2", "shape": [1], "dtype": "int32"}, {"name": "Transformer-2-MultiHeadSelfAttention/einsum_1/Reshape_2/shape/1", "shape": [], "dtype": "int32"}, {"name": "Transformer-2-MultiHeadSelfAttention/einsum/Reshape/shape/1", "shape": [], "dtype": "int32"}, {"name": "Transformer-2-MultiHeadSelfAttention/einsum/Reshape/shape/3", "shape": [], "dtype": "int32"}, {"name": "Transformer-2-MultiHeadSelfAttention/einsum/strided_slice_2/stack", "shape": [1], "dtype": "int32"}, {"name": "Transformer-2-MultiHeadSelfAttention/einsum/strided_slice_2/stack_1", "shape": [1], "dtype": "int32"}, {"name": "Transformer-2-MultiHeadSelfAttention/einsum/strided_slice_2/stack_2", "shape": [1], "dtype": "int32"}, {"name": "Transformer-2-MultiHeadSelfAttention/einsum/Reshape_1/shape/1", "shape": [], "dtype": "int32"}, {"name": "Transformer-2-MultiHeadSelfAttention/einsum/Reshape_1/shape/2", "shape": [], "dtype": "int32"}, {"name": "Transformer-2-MultiHeadSelfAttention/einsum/strided_slice/stack", "shape": [1], "dtype": "int32"}, {"name": "Transformer-2-MultiHeadSelfAttention/einsum/strided_slice/stack_1", "shape": [1], "dtype": "int32"}, {"name": "Transformer-2-MultiHeadSelfAttention/einsum/strided_slice/stack_2", "shape": [1], "dtype": "int32"}, {"name": "Transformer-2-MultiHeadSelfAttention/einsum/Reshape_2/shape/1", "shape": [], "dtype": "int32"}, {"name": "Transformer-2-MultiHeadSelfAttention/dense_13/Reshape/shape", "shape": [2], "dtype": "int32"}, {"name": "Transformer-2-MultiHeadSelfAttention/dense_13/Reshape_1", "shape": [256, 256], "dtype": "float32"}, {"name": "Transformer-2-MultiHeadSelfAttention/dense_13/Reshape_2/shape/2", "shape": [], "dtype": "int32"}, {"name": "Transformer-2-MultiHeadSelfAttention/dense_13/Reshape_3", "shape": [1, 1, 256], "dtype": "float32"}, {"name": "Transformer-2-MultiHeadSelfAttention/Reshape/shape/0", "shape": [], "dtype": "int32"}, {"name": "Transformer-2-MultiHeadSelfAttention/strided_slice/stack", "shape": [1], "dtype": "int32"}, {"name": "Transformer-2-MultiHeadSelfAttention/strided_slice/stack_1", "shape": [1], "dtype": "int32"}, {"name": "Transformer-2-MultiHeadSelfAttention/strided_slice/stack_2", "shape": [1], "dtype": "int32"}, {"name": "Transformer-2-MultiHeadSelfAttention/Reshape/shape/2", "shape": [], "dtype": "int32"}, {"name": "Transformer-2-MultiHeadSelfAttention/Reshape/shape/3", "shape": [], "dtype": "int32"}, {"name": "Transformer-2-MultiHeadSelfAttention/einsum/transpose/perm", "shape": [4], "dtype": "int32"}, {"name": "Transformer-2-MultiHeadSelfAttention/einsum/strided_slice_1/stack", "shape": [1], "dtype": "int32"}, {"name": "Transformer-2-MultiHeadSelfAttention/einsum/strided_slice_1/stack_1", "shape": [1], "dtype": "int32"}, {"name": "Transformer-2-MultiHeadSelfAttention/einsum/strided_slice_1/stack_2", "shape": [1], "dtype": "int32"}, {"name": "Transformer-2-MultiHeadSelfAttention/dense_14/Reshape/shape", "shape": [2], "dtype": "int32"}, {"name": "Transformer-2-MultiHeadSelfAttention/dense_14/Reshape_1", "shape": [256, 256], "dtype": "float32"}, {"name": "Transformer-2-MultiHeadSelfAttention/dense_14/Reshape_2/shape/2", "shape": [], "dtype": "int32"}, {"name": "Transformer-2-MultiHeadSelfAttention/dense_14/Reshape_3", "shape": [1, 1, 256], "dtype": "float32"}, {"name": "Transformer-2-MultiHeadSelfAttention/Reshape_1/shape/0", "shape": [], "dtype": "int32"}, {"name": "Transformer-1-FeedForward-Norm/gamma", "shape": [256], "dtype": "float32"}, {"name": "Transformer-1-FeedForward/dense_12/Reshape/shape", "shape": [2], "dtype": "int32"}, {"name": "Transformer-1-FeedForward/dense_12/Reshape_1", "shape": [512, 256], "dtype": "float32"}, {"name": "Transformer-1-FeedForward/dense_11/mul/x", "shape": [], "dtype": "float32"}, {"name": "Transformer-1-FeedForward/dense_11/add_1/x", "shape": [], "dtype": "float32"}, {"name": "Transformer-1-FeedForward/dense_11/Reshape/shape", "shape": [2], "dtype": "int32"}, {"name": "Transformer-1-FeedForward/dense_11/Reshape_1", "shape": [256, 512], "dtype": "float32"}, {"name": "Transformer-1-MultiHeadSelfAttention-Norm/gamma", "shape": [256], "dtype": "float32"}, {"name": "Transformer-1-MultiHeadSelfAttention/dense_10/Reshape/shape", "shape": [2], "dtype": "int32"}, {"name": "Transformer-1-MultiHeadSelfAttention/dense_10/Reshape_1", "shape": [256, 256], "dtype": "float32"}, {"name": "Transformer-1-MultiHeadSelfAttention/Reshape_3/shape/0", "shape": [], "dtype": "int32"}, {"name": "Transformer-1-MultiHeadSelfAttention/einsum_1/Reshape/shape/1", "shape": [], "dtype": "int32"}, {"name": "Transformer-1-MultiHeadSelfAttention/dense_9/Reshape/shape", "shape": [2], "dtype": "int32"}, {"name": "Transformer-1-MultiHeadSelfAttention/dense_9/Reshape_1", "shape": [256, 256], "dtype": "float32"}, {"name": "Transformer-1-MultiHeadSelfAttention/dense_9/Reshape_2/shape/2", "shape": [], "dtype": "int32"}, {"name": "Transformer-1-MultiHeadSelfAttention/dense_9/Reshape_3", "shape": [1, 1, 256], "dtype": "float32"}, {"name": "Transformer-1-MultiHeadSelfAttention/Reshape_2/shape/0", "shape": [], "dtype": "int32"}, {"name": "Transformer-1-MultiHeadSelfAttention/strided_slice_2/stack", "shape": [1], "dtype": "int32"}, {"name": "Transformer-1-MultiHeadSelfAttention/strided_slice_2/stack_1", "shape": [1], "dtype": "int32"}, {"name": "Transformer-1-MultiHeadSelfAttention/strided_slice_2/stack_2", "shape": [1], "dtype": "int32"}, {"name": "Transformer-1-MultiHeadSelfAttention/Reshape_2/shape/2", "shape": [], "dtype": "int32"}, {"name": "Transformer-1-MultiHeadSelfAttention/Reshape_2/shape/3", "shape": [], "dtype": "int32"}, {"name": "Transformer-1-MultiHeadSelfAttention/einsum_1/transpose/perm", "shape": [4], "dtype": "int32"}, {"name": "Transformer-1-MultiHeadSelfAttention/einsum_1/strided_slice_3/stack", "shape": [1], "dtype": "int32"}, {"name": "Transformer-1-MultiHeadSelfAttention/einsum_1/strided_slice_3/stack_1", "shape": [1], "dtype": "int32"}, {"name": "Transformer-1-MultiHeadSelfAttention/einsum_1/strided_slice_3/stack_2", "shape": [1], "dtype": "int32"}, {"name": "Transformer-1-MultiHeadSelfAttention/einsum_1/Reshape_1/shape/1", "shape": [], "dtype": "int32"}, {"name": "Transformer-1-MultiHeadSelfAttention/einsum_1/strided_slice_2/stack", "shape": [1], "dtype": "int32"}, {"name": "Transformer-1-MultiHeadSelfAttention/einsum_1/strided_slice_2/stack_1", "shape": [1], "dtype": "int32"}, {"name": "Transformer-1-MultiHeadSelfAttention/einsum_1/strided_slice_2/stack_2", "shape": [1], "dtype": "int32"}, {"name": "Transformer-1-MultiHeadSelfAttention/einsum_1/Reshape_1/shape/3", "shape": [], "dtype": "int32"}, {"name": "Transformer-1-MultiHeadSelfAttention/einsum_1/strided_slice/stack", "shape": [1], "dtype": "int32"}, {"name": "Transformer-1-MultiHeadSelfAttention/einsum_1/strided_slice/stack_1", "shape": [1], "dtype": "int32"}, {"name": "Transformer-1-MultiHeadSelfAttention/einsum_1/strided_slice/stack_2", "shape": [1], "dtype": "int32"}, {"name": "Transformer-1-MultiHeadSelfAttention/einsum_1/Reshape_2/shape/1", "shape": [], "dtype": "int32"}, {"name": "Transformer-1-MultiHeadSelfAttention/einsum/Reshape/shape/1", "shape": [], "dtype": "int32"}, {"name": "Transformer-1-MultiHeadSelfAttention/einsum/Reshape/shape/3", "shape": [], "dtype": "int32"}, {"name": "Transformer-1-MultiHeadSelfAttention/einsum/strided_slice_2/stack", "shape": [1], "dtype": "int32"}, {"name": "Transformer-1-MultiHeadSelfAttention/einsum/strided_slice_2/stack_1", "shape": [1], "dtype": "int32"}, {"name": "Transformer-1-MultiHeadSelfAttention/einsum/strided_slice_2/stack_2", "shape": [1], "dtype": "int32"}, {"name": "Transformer-1-MultiHeadSelfAttention/einsum/Reshape_1/shape/1", "shape": [], "dtype": "int32"}, {"name": "Transformer-1-MultiHeadSelfAttention/einsum/Reshape_1/shape/2", "shape": [], "dtype": "int32"}, {"name": "Transformer-1-MultiHeadSelfAttention/einsum/strided_slice/stack", "shape": [1], "dtype": "int32"}, {"name": "Transformer-1-MultiHeadSelfAttention/einsum/strided_slice/stack_1", "shape": [1], "dtype": "int32"}, {"name": "Transformer-1-MultiHeadSelfAttention/einsum/strided_slice/stack_2", "shape": [1], "dtype": "int32"}, {"name": "Transformer-1-MultiHeadSelfAttention/einsum/Reshape_2/shape/1", "shape": [], "dtype": "int32"}, {"name": "Transformer-1-MultiHeadSelfAttention/dense_7/Reshape/shape", "shape": [2], "dtype": "int32"}, {"name": "Transformer-1-MultiHeadSelfAttention/dense_7/Reshape_1", "shape": [256, 256], "dtype": "float32"}, {"name": "Transformer-1-MultiHeadSelfAttention/dense_7/Reshape_2/shape/2", "shape": [], "dtype": "int32"}, {"name": "Transformer-1-MultiHeadSelfAttention/dense_7/Reshape_3", "shape": [1, 1, 256], "dtype": "float32"}, {"name": "Transformer-1-MultiHeadSelfAttention/Reshape/shape/0", "shape": [], "dtype": "int32"}, {"name": "Transformer-1-MultiHeadSelfAttention/strided_slice/stack", "shape": [1], "dtype": "int32"}, {"name": "Transformer-1-MultiHeadSelfAttention/strided_slice/stack_1", "shape": [1], "dtype": "int32"}, {"name": "Transformer-1-MultiHeadSelfAttention/strided_slice/stack_2", "shape": [1], "dtype": "int32"}, {"name": "Transformer-1-MultiHeadSelfAttention/Reshape/shape/2", "shape": [], "dtype": "int32"}, {"name": "Transformer-1-MultiHeadSelfAttention/Reshape/shape/3", "shape": [], "dtype": "int32"}, {"name": "Transformer-1-MultiHeadSelfAttention/einsum/transpose/perm", "shape": [4], "dtype": "int32"}, {"name": "Transformer-1-MultiHeadSelfAttention/einsum/strided_slice_1/stack", "shape": [1], "dtype": "int32"}, {"name": "Transformer-1-MultiHeadSelfAttention/einsum/strided_slice_1/stack_1", "shape": [1], "dtype": "int32"}, {"name": "Transformer-1-MultiHeadSelfAttention/einsum/strided_slice_1/stack_2", "shape": [1], "dtype": "int32"}, {"name": "Transformer-1-MultiHeadSelfAttention/dense_8/Reshape/shape", "shape": [2], "dtype": "int32"}, {"name": "Transformer-1-MultiHeadSelfAttention/dense_8/Reshape_1", "shape": [256, 256], "dtype": "float32"}, {"name": "Transformer-1-MultiHeadSelfAttention/dense_8/Reshape_2/shape/2", "shape": [], "dtype": "int32"}, {"name": "Transformer-1-MultiHeadSelfAttention/dense_8/Reshape_3", "shape": [1, 1, 256], "dtype": "float32"}, {"name": "Transformer-1-MultiHeadSelfAttention/Reshape_1/shape/0", "shape": [], "dtype": "int32"}, {"name": "Transformer-0-FeedForward-Norm/gamma", "shape": [256], "dtype": "float32"}, {"name": "Transformer-0-FeedForward/dense_6/Reshape/shape", "shape": [2], "dtype": "int32"}, {"name": "Transformer-0-FeedForward/dense_6/Reshape_1", "shape": [512, 256], "dtype": "float32"}, {"name": "Transformer-0-FeedForward/dense_5/mul/x", "shape": [], "dtype": "float32"}, {"name": "Transformer-0-FeedForward/dense_5/add_1/x", "shape": [], "dtype": "float32"}, {"name": "Transformer-0-FeedForward/dense_5/Reshape/shape", "shape": [2], "dtype": "int32"}, {"name": "Transformer-0-FeedForward/dense_5/Reshape_1", "shape": [256, 512], "dtype": "float32"}, {"name": "Transformer-0-MultiHeadSelfAttention-Norm/gamma", "shape": [256], "dtype": "float32"}, {"name": "Transformer-0-MultiHeadSelfAttention/dense_4/Reshape/shape", "shape": [2], "dtype": "int32"}, {"name": "Transformer-0-MultiHeadSelfAttention/dense_4/Reshape_1", "shape": [256, 256], "dtype": "float32"}, {"name": "Transformer-0-MultiHeadSelfAttention/Reshape_3/shape/0", "shape": [], "dtype": "int32"}, {"name": "Transformer-0-MultiHeadSelfAttention/einsum_1/Reshape/shape/1", "shape": [], "dtype": "int32"}, {"name": "Transformer-0-MultiHeadSelfAttention/dense_3/Reshape/shape", "shape": [2], "dtype": "int32"}, {"name": "Transformer-0-MultiHeadSelfAttention/dense_3/Reshape_1", "shape": [256, 256], "dtype": "float32"}, {"name": "Transformer-0-MultiHeadSelfAttention/dense_3/Reshape_2/shape/2", "shape": [], "dtype": "int32"}, {"name": "Transformer-0-MultiHeadSelfAttention/dense_3/Reshape_3", "shape": [1, 1, 256], "dtype": "float32"}, {"name": "Transformer-0-MultiHeadSelfAttention/Reshape_2/shape/0", "shape": [], "dtype": "int32"}, {"name": "Transformer-0-MultiHeadSelfAttention/strided_slice_2/stack", "shape": [1], "dtype": "int32"}, {"name": "Transformer-0-MultiHeadSelfAttention/strided_slice_2/stack_1", "shape": [1], "dtype": "int32"}, {"name": "Transformer-0-MultiHeadSelfAttention/strided_slice_2/stack_2", "shape": [1], "dtype": "int32"}, {"name": "Transformer-0-MultiHeadSelfAttention/Reshape_2/shape/2", "shape": [], "dtype": "int32"}, {"name": "Transformer-0-MultiHeadSelfAttention/Reshape_2/shape/3", "shape": [], "dtype": "int32"}, {"name": "Transformer-0-MultiHeadSelfAttention/einsum_1/transpose/perm", "shape": [4], "dtype": "int32"}, {"name": "Transformer-0-MultiHeadSelfAttention/einsum_1/strided_slice_3/stack", "shape": [1], "dtype": "int32"}, {"name": "Transformer-0-MultiHeadSelfAttention/einsum_1/strided_slice_3/stack_1", "shape": [1], "dtype": "int32"}, {"name": "Transformer-0-MultiHeadSelfAttention/einsum_1/strided_slice_3/stack_2", "shape": [1], "dtype": "int32"}, {"name": "Transformer-0-MultiHeadSelfAttention/einsum_1/Reshape_1/shape/1", "shape": [], "dtype": "int32"}, {"name": "Transformer-0-MultiHeadSelfAttention/einsum_1/strided_slice_2/stack", "shape": [1], "dtype": "int32"}, {"name": "Transformer-0-MultiHeadSelfAttention/einsum_1/strided_slice_2/stack_1", "shape": [1], "dtype": "int32"}, {"name": "Transformer-0-MultiHeadSelfAttention/einsum_1/strided_slice_2/stack_2", "shape": [1], "dtype": "int32"}, {"name": "Transformer-0-MultiHeadSelfAttention/einsum_1/Reshape_1/shape/3", "shape": [], "dtype": "int32"}, {"name": "Transformer-0-MultiHeadSelfAttention/einsum_1/strided_slice/stack", "shape": [1], "dtype": "int32"}, {"name": "Transformer-0-MultiHeadSelfAttention/einsum_1/strided_slice/stack_1", "shape": [1], "dtype": "int32"}, {"name": "Transformer-0-MultiHeadSelfAttention/einsum_1/strided_slice/stack_2", "shape": [1], "dtype": "int32"}, {"name": "Transformer-0-MultiHeadSelfAttention/einsum_1/Reshape_2/shape/1", "shape": [], "dtype": "int32"}, {"name": "Transformer-0-MultiHeadSelfAttention/einsum/Reshape/shape/1", "shape": [], "dtype": "int32"}, {"name": "Transformer-0-MultiHeadSelfAttention/einsum/Reshape/shape/3", "shape": [], "dtype": "int32"}, {"name": "Transformer-0-MultiHeadSelfAttention/einsum/strided_slice_2/stack", "shape": [1], "dtype": "int32"}, {"name": "Transformer-0-MultiHeadSelfAttention/einsum/strided_slice_2/stack_1", "shape": [1], "dtype": "int32"}, {"name": "Transformer-0-MultiHeadSelfAttention/einsum/strided_slice_2/stack_2", "shape": [1], "dtype": "int32"}, {"name": "Transformer-0-MultiHeadSelfAttention/einsum/Reshape_1/shape/1", "shape": [], "dtype": "int32"}, {"name": "Transformer-0-MultiHeadSelfAttention/einsum/Reshape_1/shape/2", "shape": [], "dtype": "int32"}, {"name": "Transformer-0-MultiHeadSelfAttention/einsum/strided_slice/stack", "shape": [1], "dtype": "int32"}, {"name": "Transformer-0-MultiHeadSelfAttention/einsum/strided_slice/stack_1", "shape": [1], "dtype": "int32"}, {"name": "Transformer-0-MultiHeadSelfAttention/einsum/strided_slice/stack_2", "shape": [1], "dtype": "int32"}, {"name": "Transformer-0-MultiHeadSelfAttention/einsum/Reshape_2/shape/1", "shape": [], "dtype": "int32"}, {"name": "Transformer-0-MultiHeadSelfAttention/dense_1/Reshape/shape", "shape": [2], "dtype": "int32"}, {"name": "Transformer-0-MultiHeadSelfAttention/dense_1/Reshape_1", "shape": [256, 256], "dtype": "float32"}, {"name": "Transformer-0-MultiHeadSelfAttention/dense_1/Reshape_2/shape/2", "shape": [], "dtype": "int32"}, {"name": "Transformer-0-MultiHeadSelfAttention/dense_1/Reshape_3", "shape": [1, 1, 256], "dtype": "float32"}, {"name": "Transformer-0-MultiHeadSelfAttention/Reshape/shape/0", "shape": [], "dtype": "int32"}, {"name": "Transformer-0-MultiHeadSelfAttention/strided_slice/stack", "shape": [1], "dtype": "int32"}, {"name": "Transformer-0-MultiHeadSelfAttention/strided_slice/stack_1", "shape": [1], "dtype": "int32"}, {"name": "Transformer-0-MultiHeadSelfAttention/strided_slice/stack_2", "shape": [1], "dtype": "int32"}, {"name": "Transformer-0-MultiHeadSelfAttention/Reshape/shape/2", "shape": [], "dtype": "int32"}, {"name": "Transformer-0-MultiHeadSelfAttention/Reshape/shape/3", "shape": [], "dtype": "int32"}, {"name": "Transformer-0-MultiHeadSelfAttention/einsum/transpose/perm", "shape": [4], "dtype": "int32"}, {"name": "Transformer-0-MultiHeadSelfAttention/einsum/strided_slice_1/stack", "shape": [1], "dtype": "int32"}, {"name": "Transformer-0-MultiHeadSelfAttention/einsum/strided_slice_1/stack_1", "shape": [1], "dtype": "int32"}, {"name": "Transformer-0-MultiHeadSelfAttention/einsum/strided_slice_1/stack_2", "shape": [1], "dtype": "int32"}, {"name": "Transformer-0-MultiHeadSelfAttention/dense_2/Reshape/shape", "shape": [2], "dtype": "int32"}, {"name": "Transformer-0-MultiHeadSelfAttention/dense_2/Reshape_1", "shape": [256, 256], "dtype": "float32"}, {"name": "Transformer-0-MultiHeadSelfAttention/dense_2/Reshape_2/shape/2", "shape": [], "dtype": "int32"}, {"name": "Transformer-0-MultiHeadSelfAttention/dense_2/Reshape_3", "shape": [1, 1, 256], "dtype": "float32"}, {"name": "Transformer-0-MultiHeadSelfAttention/Reshape_1/shape/0", "shape": [], "dtype": "int32"}, {"name": "Embedding-Norm/gamma", "shape": [256], "dtype": "float32"}, {"name": "Embedding-Position/embeddings", "shape": [512, 256], "dtype": "float32"}, {"name": "Embedding-Position/strided_slice_3/stack", "shape": [2], "dtype": "int32"}, {"name": "Embedding-Position/strided_slice_3/stack_1/0", "shape": [], "dtype": "int32"}, {"name": "Embedding-Token/embeddings", "shape": [99, 256], "dtype": "float32"}, {"name": "Embedding-Token/embedding_lookup/axis", "shape": [], "dtype": "int32"}, {"name": "Embedding-Segment/embeddings", "shape": [2, 256], "dtype": "float32"}, {"name": "Embedding-Segment/embedding_lookup/axis", "shape": [], "dtype": "int32"}, {"name": "Embedding-Position/strided_slice_1/stack", "shape": [1], "dtype": "int32"}, {"name": "Embedding-Position/strided_slice_1/stack_1", "shape": [1], "dtype": "int32"}, {"name": "Embedding-Position/strided_slice_1/stack_2", "shape": [1], "dtype": "int32"}, {"name": "Embedding-Position/strided_slice_3/stack_2", "shape": [2], "dtype": "int32"}, {"name": "Embedding-Norm/Mean/reduction_indices", "shape": [], "dtype": "int32"}, {"name": "Embedding-Norm/Mean_1/reduction_indices", "shape": [], "dtype": "int32"}, {"name": "Embedding-Norm/add/y", "shape": [], "dtype": "float32"}, {"name": "Embedding-Norm/Const_3", "shape": [], "dtype": "float32"}, {"name": "Embedding-Norm/Const_2", "shape": [], "dtype": "float32"}, {"name": "Embedding-Norm/beta", "shape": [256], "dtype": "float32"}, {"name": "Transformer-0-MultiHeadSelfAttention/strided_slice_1/stack", "shape": [1], "dtype": "int32"}, {"name": "Transformer-0-MultiHeadSelfAttention/strided_slice_1/stack_1", "shape": [1], "dtype": "int32"}, {"name": "Transformer-0-MultiHeadSelfAttention/strided_slice_1/stack_2", "shape": [1], "dtype": "int32"}, {"name": "Transformer-0-MultiHeadSelfAttention/Reshape_1/shape/2", "shape": [], "dtype": "int32"}, {"name": "Transformer-0-MultiHeadSelfAttention/Reshape_1/shape/3", "shape": [], "dtype": "int32"}, {"name": "Transformer-0-MultiHeadSelfAttention/einsum/transpose_1/perm", "shape": [4], "dtype": "int32"}, {"name": "Transformer-0-MultiHeadSelfAttention/einsum/strided_slice_3/stack", "shape": [1], "dtype": "int32"}, {"name": "Transformer-0-MultiHeadSelfAttention/einsum/strided_slice_3/stack_1", "shape": [1], "dtype": "int32"}, {"name": "Transformer-0-MultiHeadSelfAttention/einsum/strided_slice_3/stack_2", "shape": [1], "dtype": "int32"}, {"name": "ConstantFolding/Transformer-0-MultiHeadSelfAttention/truediv_recip", "shape": [], "dtype": "float32"}, {"name": "Transformer-0-MultiHeadSelfAttention/mul_1/x", "shape": [], "dtype": "float32"}, {"name": "Transformer-0-MultiHeadSelfAttention/sub/x", "shape": [], "dtype": "float32"}, {"name": "Transformer-0-MultiHeadSelfAttention/ExpandDims/dim", "shape": [], "dtype": "int32"}, {"name": "Transformer-0-MultiHeadSelfAttention/ExpandDims_1/dim", "shape": [], "dtype": "int32"}, {"name": "Transformer-0-MultiHeadSelfAttention/einsum_1/strided_slice_1/stack", "shape": [1], "dtype": "int32"}, {"name": "Transformer-0-MultiHeadSelfAttention/einsum_1/strided_slice_1/stack_1", "shape": [1], "dtype": "int32"}, {"name": "Transformer-0-MultiHeadSelfAttention/einsum_1/strided_slice_1/stack_2", "shape": [1], "dtype": "int32"}, {"name": "Transformer-0-MultiHeadSelfAttention/einsum_1/Reshape_2/shape/3", "shape": [], "dtype": "int32"}, {"name": "Transformer-0-MultiHeadSelfAttention/einsum_1/transpose_1/perm", "shape": [4], "dtype": "int32"}, {"name": "Transformer-0-MultiHeadSelfAttention/strided_slice_3/stack", "shape": [1], "dtype": "int32"}, {"name": "Transformer-0-MultiHeadSelfAttention/strided_slice_3/stack_1", "shape": [1], "dtype": "int32"}, {"name": "Transformer-0-MultiHeadSelfAttention/strided_slice_3/stack_2", "shape": [1], "dtype": "int32"}, {"name": "Transformer-0-MultiHeadSelfAttention/Reshape_3/shape/2", "shape": [], "dtype": "int32"}, {"name": "Transformer-0-MultiHeadSelfAttention/dense_4/Reshape_2/shape/2", "shape": [], "dtype": "int32"}, {"name": "Transformer-0-MultiHeadSelfAttention/dense_4/Reshape_3", "shape": [1, 1, 256], "dtype": "float32"}, {"name": "Transformer-0-MultiHeadSelfAttention-Norm/Mean/reduction_indices", "shape": [], "dtype": "int32"}, {"name": "Transformer-0-MultiHeadSelfAttention-Norm/Mean_1/reduction_indices", "shape": [], "dtype": "int32"}, {"name": "Transformer-0-MultiHeadSelfAttention-Norm/add/y", "shape": [], "dtype": "float32"}, {"name": "Transformer-0-MultiHeadSelfAttention-Norm/Const_3", "shape": [], "dtype": "float32"}, {"name": "Transformer-0-MultiHeadSelfAttention-Norm/Const_2", "shape": [], "dtype": "float32"}, {"name": "Transformer-0-MultiHeadSelfAttention-Norm/beta", "shape": [256], "dtype": "float32"}, {"name": "Transformer-0-FeedForward/dense_5/Reshape_2/shape/2", "shape": [], "dtype": "int32"}, {"name": "Transformer-0-FeedForward/dense_5/Reshape_3", "shape": [1, 1, 512], "dtype": "float32"}, {"name": "ConstantFolding/Transformer-0-FeedForward/dense_5/truediv_recip", "shape": [], "dtype": "float32"}, {"name": "Transformer-0-FeedForward/dense_6/Reshape_2/shape/2", "shape": [], "dtype": "int32"}, {"name": "Transformer-0-FeedForward/dense_6/Reshape_3", "shape": [1, 1, 256], "dtype": "float32"}, {"name": "Transformer-0-FeedForward-Norm/Mean/reduction_indices", "shape": [], "dtype": "int32"}, {"name": "Transformer-0-FeedForward-Norm/Mean_1/reduction_indices", "shape": [], "dtype": "int32"}, {"name": "Transformer-0-FeedForward-Norm/add/y", "shape": [], "dtype": "float32"}, {"name": "Transformer-0-FeedForward-Norm/Const_3", "shape": [], "dtype": "float32"}, {"name": "Transformer-0-FeedForward-Norm/Const_2", "shape": [], "dtype": "float32"}, {"name": "Transformer-0-FeedForward-Norm/beta", "shape": [256], "dtype": "float32"}, {"name": "Transformer-1-MultiHeadSelfAttention/strided_slice_1/stack", "shape": [1], "dtype": "int32"}, {"name": "Transformer-1-MultiHeadSelfAttention/strided_slice_1/stack_1", "shape": [1], "dtype": "int32"}, {"name": "Transformer-1-MultiHeadSelfAttention/strided_slice_1/stack_2", "shape": [1], "dtype": "int32"}, {"name": "Transformer-1-MultiHeadSelfAttention/Reshape_1/shape/2", "shape": [], "dtype": "int32"}, {"name": "Transformer-1-MultiHeadSelfAttention/Reshape_1/shape/3", "shape": [], "dtype": "int32"}, {"name": "Transformer-1-MultiHeadSelfAttention/einsum/transpose_1/perm", "shape": [4], "dtype": "int32"}, {"name": "Transformer-1-MultiHeadSelfAttention/einsum/strided_slice_3/stack", "shape": [1], "dtype": "int32"}, {"name": "Transformer-1-MultiHeadSelfAttention/einsum/strided_slice_3/stack_1", "shape": [1], "dtype": "int32"}, {"name": "Transformer-1-MultiHeadSelfAttention/einsum/strided_slice_3/stack_2", "shape": [1], "dtype": "int32"}, {"name": "ConstantFolding/Transformer-1-MultiHeadSelfAttention/truediv_recip", "shape": [], "dtype": "float32"}, {"name": "Transformer-1-MultiHeadSelfAttention/mul_1/x", "shape": [], "dtype": "float32"}, {"name": "Transformer-1-MultiHeadSelfAttention/sub/x", "shape": [], "dtype": "float32"}, {"name": "Transformer-1-MultiHeadSelfAttention/ExpandDims/dim", "shape": [], "dtype": "int32"}, {"name": "Transformer-1-MultiHeadSelfAttention/ExpandDims_1/dim", "shape": [], "dtype": "int32"}, {"name": "Transformer-1-MultiHeadSelfAttention/einsum_1/strided_slice_1/stack", "shape": [1], "dtype": "int32"}, {"name": "Transformer-1-MultiHeadSelfAttention/einsum_1/strided_slice_1/stack_1", "shape": [1], "dtype": "int32"}, {"name": "Transformer-1-MultiHeadSelfAttention/einsum_1/strided_slice_1/stack_2", "shape": [1], "dtype": "int32"}, {"name": "Transformer-1-MultiHeadSelfAttention/einsum_1/Reshape_2/shape/3", "shape": [], "dtype": "int32"}, {"name": "Transformer-1-MultiHeadSelfAttention/einsum_1/transpose_1/perm", "shape": [4], "dtype": "int32"}, {"name": "Transformer-1-MultiHeadSelfAttention/strided_slice_3/stack", "shape": [1], "dtype": "int32"}, {"name": "Transformer-1-MultiHeadSelfAttention/strided_slice_3/stack_1", "shape": [1], "dtype": "int32"}, {"name": "Transformer-1-MultiHeadSelfAttention/strided_slice_3/stack_2", "shape": [1], "dtype": "int32"}, {"name": "Transformer-1-MultiHeadSelfAttention/Reshape_3/shape/2", "shape": [], "dtype": "int32"}, {"name": "Transformer-1-MultiHeadSelfAttention/dense_10/Reshape_2/shape/2", "shape": [], "dtype": "int32"}, {"name": "Transformer-1-MultiHeadSelfAttention/dense_10/Reshape_3", "shape": [1, 1, 256], "dtype": "float32"}, {"name": "Transformer-1-MultiHeadSelfAttention-Norm/Mean/reduction_indices", "shape": [], "dtype": "int32"}, {"name": "Transformer-1-MultiHeadSelfAttention-Norm/Mean_1/reduction_indices", "shape": [], "dtype": "int32"}, {"name": "Transformer-1-MultiHeadSelfAttention-Norm/add/y", "shape": [], "dtype": "float32"}, {"name": "Transformer-1-MultiHeadSelfAttention-Norm/Const_3", "shape": [], "dtype": "float32"}, {"name": "Transformer-1-MultiHeadSelfAttention-Norm/Const_2", "shape": [], "dtype": "float32"}, {"name": "Transformer-1-MultiHeadSelfAttention-Norm/beta", "shape": [256], "dtype": "float32"}, {"name": "Transformer-1-FeedForward/dense_11/Reshape_2/shape/2", "shape": [], "dtype": "int32"}, {"name": "Transformer-1-FeedForward/dense_11/Reshape_3", "shape": [1, 1, 512], "dtype": "float32"}, {"name": "ConstantFolding/Transformer-1-FeedForward/dense_11/truediv_recip", "shape": [], "dtype": "float32"}, {"name": "Transformer-1-FeedForward/dense_12/Reshape_2/shape/2", "shape": [], "dtype": "int32"}, {"name": "Transformer-1-FeedForward/dense_12/Reshape_3", "shape": [1, 1, 256], "dtype": "float32"}, {"name": "Transformer-1-FeedForward-Norm/Mean/reduction_indices", "shape": [], "dtype": "int32"}, {"name": "Transformer-1-FeedForward-Norm/Mean_1/reduction_indices", "shape": [], "dtype": "int32"}, {"name": "Transformer-1-FeedForward-Norm/add/y", "shape": [], "dtype": "float32"}, {"name": "Transformer-1-FeedForward-Norm/Const_3", "shape": [], "dtype": "float32"}, {"name": "Transformer-1-FeedForward-Norm/Const_2", "shape": [], "dtype": "float32"}, {"name": "Transformer-1-FeedForward-Norm/beta", "shape": [256], "dtype": "float32"}, {"name": "Transformer-2-MultiHeadSelfAttention/strided_slice_1/stack", "shape": [1], "dtype": "int32"}, {"name": "Transformer-2-MultiHeadSelfAttention/strided_slice_1/stack_1", "shape": [1], "dtype": "int32"}, {"name": "Transformer-2-MultiHeadSelfAttention/strided_slice_1/stack_2", "shape": [1], "dtype": "int32"}, {"name": "Transformer-2-MultiHeadSelfAttention/Reshape_1/shape/2", "shape": [], "dtype": "int32"}, {"name": "Transformer-2-MultiHeadSelfAttention/Reshape_1/shape/3", "shape": [], "dtype": "int32"}, {"name": "Transformer-2-MultiHeadSelfAttention/einsum/transpose_1/perm", "shape": [4], "dtype": "int32"}, {"name": "Transformer-2-MultiHeadSelfAttention/einsum/strided_slice_3/stack", "shape": [1], "dtype": "int32"}, {"name": "Transformer-2-MultiHeadSelfAttention/einsum/strided_slice_3/stack_1", "shape": [1], "dtype": "int32"}, {"name": "Transformer-2-MultiHeadSelfAttention/einsum/strided_slice_3/stack_2", "shape": [1], "dtype": "int32"}, {"name": "ConstantFolding/Transformer-2-MultiHeadSelfAttention/truediv_recip", "shape": [], "dtype": "float32"}, {"name": "Transformer-2-MultiHeadSelfAttention/mul_1/x", "shape": [], "dtype": "float32"}, {"name": "Transformer-2-MultiHeadSelfAttention/sub/x", "shape": [], "dtype": "float32"}, {"name": "Transformer-2-MultiHeadSelfAttention/ExpandDims/dim", "shape": [], "dtype": "int32"}, {"name": "Transformer-2-MultiHeadSelfAttention/ExpandDims_1/dim", "shape": [], "dtype": "int32"}, {"name": "Transformer-2-MultiHeadSelfAttention/einsum_1/strided_slice_1/stack", "shape": [1], "dtype": "int32"}, {"name": "Transformer-2-MultiHeadSelfAttention/einsum_1/strided_slice_1/stack_1", "shape": [1], "dtype": "int32"}, {"name": "Transformer-2-MultiHeadSelfAttention/einsum_1/strided_slice_1/stack_2", "shape": [1], "dtype": "int32"}, {"name": "Transformer-2-MultiHeadSelfAttention/einsum_1/Reshape_2/shape/3", "shape": [], "dtype": "int32"}, {"name": "Transformer-2-MultiHeadSelfAttention/einsum_1/transpose_1/perm", "shape": [4], "dtype": "int32"}, {"name": "Transformer-2-MultiHeadSelfAttention/strided_slice_3/stack", "shape": [1], "dtype": "int32"}, {"name": "Transformer-2-MultiHeadSelfAttention/strided_slice_3/stack_1", "shape": [1], "dtype": "int32"}, {"name": "Transformer-2-MultiHeadSelfAttention/strided_slice_3/stack_2", "shape": [1], "dtype": "int32"}, {"name": "Transformer-2-MultiHeadSelfAttention/Reshape_3/shape/2", "shape": [], "dtype": "int32"}, {"name": "Transformer-2-MultiHeadSelfAttention/dense_16/Reshape_2/shape/2", "shape": [], "dtype": "int32"}, {"name": "Transformer-2-MultiHeadSelfAttention/dense_16/Reshape_3", "shape": [1, 1, 256], "dtype": "float32"}, {"name": "Transformer-2-MultiHeadSelfAttention-Norm/Mean/reduction_indices", "shape": [], "dtype": "int32"}, {"name": "Transformer-2-MultiHeadSelfAttention-Norm/Mean_1/reduction_indices", "shape": [], "dtype": "int32"}, {"name": "Transformer-2-MultiHeadSelfAttention-Norm/add/y", "shape": [], "dtype": "float32"}, {"name": "Transformer-2-MultiHeadSelfAttention-Norm/Const_3", "shape": [], "dtype": "float32"}, {"name": "Transformer-2-MultiHeadSelfAttention-Norm/Const_2", "shape": [], "dtype": "float32"}, {"name": "Transformer-2-MultiHeadSelfAttention-Norm/beta", "shape": [256], "dtype": "float32"}, {"name": "Transformer-2-FeedForward/dense_17/Reshape_2/shape/2", "shape": [], "dtype": "int32"}, {"name": "Transformer-2-FeedForward/dense_17/Reshape_3", "shape": [1, 1, 512], "dtype": "float32"}, {"name": "ConstantFolding/Transformer-2-FeedForward/dense_17/truediv_recip", "shape": [], "dtype": "float32"}, {"name": "Transformer-2-FeedForward/dense_18/Reshape_2/shape/2", "shape": [], "dtype": "int32"}, {"name": "Transformer-2-FeedForward/dense_18/Reshape_3", "shape": [1, 1, 256], "dtype": "float32"}, {"name": "Transformer-2-FeedForward-Norm/Mean/reduction_indices", "shape": [], "dtype": "int32"}, {"name": "Transformer-2-FeedForward-Norm/Mean_1/reduction_indices", "shape": [], "dtype": "int32"}, {"name": "Transformer-2-FeedForward-Norm/add/y", "shape": [], "dtype": "float32"}, {"name": "Transformer-2-FeedForward-Norm/Const_3", "shape": [], "dtype": "float32"}, {"name": "Transformer-2-FeedForward-Norm/Const_2", "shape": [], "dtype": "float32"}, {"name": "Transformer-2-FeedForward-Norm/beta", "shape": [256], "dtype": "float32"}, {"name": "Transformer-3-MultiHeadSelfAttention/strided_slice_1/stack", "shape": [1], "dtype": "int32"}, {"name": "Transformer-3-MultiHeadSelfAttention/strided_slice_1/stack_1", "shape": [1], "dtype": "int32"}, {"name": "Transformer-3-MultiHeadSelfAttention/strided_slice_1/stack_2", "shape": [1], "dtype": "int32"}, {"name": "Transformer-3-MultiHeadSelfAttention/Reshape_1/shape/2", "shape": [], "dtype": "int32"}, {"name": "Transformer-3-MultiHeadSelfAttention/Reshape_1/shape/3", "shape": [], "dtype": "int32"}, {"name": "Transformer-3-MultiHeadSelfAttention/einsum/transpose_1/perm", "shape": [4], "dtype": "int32"}, {"name": "Transformer-3-MultiHeadSelfAttention/einsum/strided_slice_3/stack", "shape": [1], "dtype": "int32"}, {"name": "Transformer-3-MultiHeadSelfAttention/einsum/strided_slice_3/stack_1", "shape": [1], "dtype": "int32"}, {"name": "Transformer-3-MultiHeadSelfAttention/einsum/strided_slice_3/stack_2", "shape": [1], "dtype": "int32"}, {"name": "ConstantFolding/Transformer-3-MultiHeadSelfAttention/truediv_recip", "shape": [], "dtype": "float32"}, {"name": "Transformer-3-MultiHeadSelfAttention/mul_1/x", "shape": [], "dtype": "float32"}, {"name": "Transformer-3-MultiHeadSelfAttention/sub/x", "shape": [], "dtype": "float32"}, {"name": "Transformer-2-FeedForward-Add/ExpandDims/dim", "shape": [], "dtype": "int32"}, {"name": "Transformer-2-MultiHeadSelfAttention-Add/ExpandDims/dim", "shape": [], "dtype": "int32"}, {"name": "Transformer-1-FeedForward-Add/ExpandDims/dim", "shape": [], "dtype": "int32"}, {"name": "Transformer-1-MultiHeadSelfAttention-Add/ExpandDims/dim", "shape": [], "dtype": "int32"}, {"name": "Transformer-0-FeedForward-Add/ExpandDims/dim", "shape": [], "dtype": "int32"}, {"name": "Transformer-0-MultiHeadSelfAttention-Add/ExpandDims/dim", "shape": [], "dtype": "int32"}, {"name": "Embedding-Token/strided_slice/stack", "shape": [2], "dtype": "int32"}, {"name": "Embedding-Token/strided_slice/stack_1", "shape": [2], "dtype": "int32"}, {"name": "Embedding-Token/strided_slice/stack_2", "shape": [2], "dtype": "int32"}, {"name": "Embedding-Token/ones_like/Const", "shape": [], "dtype": "bool"}, {"name": "Embedding-Token/NotEqual/y", "shape": [], "dtype": "float32"}, {"name": "Embedding-Token/strided_slice_1/stack", "shape": [2], "dtype": "int32"}, {"name": "Embedding-Token/strided_slice_1/stack_1", "shape": [2], "dtype": "int32"}, {"name": "Embedding-Token/strided_slice_1/stack_2", "shape": [2], "dtype": "int32"}, {"name": "Embedding-Token/concat/axis", "shape": [], "dtype": "int32"}, {"name": "Embedding-Token-Segment/ExpandDims/dim", "shape": [], "dtype": "int32"}, {"name": "Embedding-Token-Segment/All/reduction_indices", "shape": [], "dtype": "int32"}, {"name": "Transformer-0-MultiHeadSelfAttention-Add/ExpandDims_1/dim", "shape": [], "dtype": "int32"}, {"name": "Transformer-0-MultiHeadSelfAttention-Add/concat/axis", "shape": [], "dtype": "int32"}, {"name": "Transformer-0-MultiHeadSelfAttention-Add/All/reduction_indices", "shape": [], "dtype": "int32"}, {"name": "Transformer-0-FeedForward-Add/ExpandDims_1/dim", "shape": [], "dtype": "int32"}, {"name": "Transformer-0-FeedForward-Add/concat/axis", "shape": [], "dtype": "int32"}, {"name": "Transformer-0-FeedForward-Add/All/reduction_indices", "shape": [], "dtype": "int32"}, {"name": "Transformer-1-MultiHeadSelfAttention-Add/ExpandDims_1/dim", "shape": [], "dtype": "int32"}, {"name": "Transformer-1-MultiHeadSelfAttention-Add/concat/axis", "shape": [], "dtype": "int32"}, {"name": "Transformer-1-MultiHeadSelfAttention-Add/All/reduction_indices", "shape": [], "dtype": "int32"}, {"name": "Transformer-1-FeedForward-Add/ExpandDims_1/dim", "shape": [], "dtype": "int32"}, {"name": "Transformer-1-FeedForward-Add/concat/axis", "shape": [], "dtype": "int32"}, {"name": "Transformer-1-FeedForward-Add/All/reduction_indices", "shape": [], "dtype": "int32"}, {"name": "Transformer-2-MultiHeadSelfAttention-Add/ExpandDims_1/dim", "shape": [], "dtype": "int32"}, {"name": "Transformer-2-MultiHeadSelfAttention-Add/concat/axis", "shape": [], "dtype": "int32"}, {"name": "Transformer-2-MultiHeadSelfAttention-Add/All/reduction_indices", "shape": [], "dtype": "int32"}, {"name": "Transformer-2-FeedForward-Add/ExpandDims_1/dim", "shape": [], "dtype": "int32"}, {"name": "Transformer-2-FeedForward-Add/concat/axis", "shape": [], "dtype": "int32"}, {"name": "Transformer-2-FeedForward-Add/All/reduction_indices", "shape": [], "dtype": "int32"}, {"name": "Transformer-3-MultiHeadSelfAttention/ExpandDims/dim", "shape": [], "dtype": "int32"}, {"name": "Transformer-3-MultiHeadSelfAttention/ExpandDims_1/dim", "shape": [], "dtype": "int32"}, {"name": "Transformer-3-MultiHeadSelfAttention/einsum_1/strided_slice_1/stack", "shape": [1], "dtype": "int32"}, {"name": "Transformer-3-MultiHeadSelfAttention/einsum_1/strided_slice_1/stack_1", "shape": [1], "dtype": "int32"}, {"name": "Transformer-3-MultiHeadSelfAttention/einsum_1/strided_slice_1/stack_2", "shape": [1], "dtype": "int32"}, {"name": "Transformer-3-MultiHeadSelfAttention/einsum_1/Reshape_2/shape/3", "shape": [], "dtype": "int32"}, {"name": "Transformer-3-MultiHeadSelfAttention/einsum_1/transpose_1/perm", "shape": [4], "dtype": "int32"}, {"name": "Transformer-3-MultiHeadSelfAttention/strided_slice_3/stack", "shape": [1], "dtype": "int32"}, {"name": "Transformer-3-MultiHeadSelfAttention/strided_slice_3/stack_1", "shape": [1], "dtype": "int32"}, {"name": "Transformer-3-MultiHeadSelfAttention/strided_slice_3/stack_2", "shape": [1], "dtype": "int32"}, {"name": "Transformer-3-MultiHeadSelfAttention/Reshape_3/shape/2", "shape": [], "dtype": "int32"}, {"name": "Transformer-3-MultiHeadSelfAttention/dense_22/Reshape_2/shape/2", "shape": [], "dtype": "int32"}, {"name": "Transformer-3-MultiHeadSelfAttention/dense_22/Reshape_3", "shape": [1, 1, 256], "dtype": "float32"}, {"name": "Transformer-3-MultiHeadSelfAttention-Norm/Mean/reduction_indices", "shape": [], "dtype": "int32"}, {"name": "Transformer-3-MultiHeadSelfAttention-Norm/Mean_1/reduction_indices", "shape": [], "dtype": "int32"}, {"name": "Transformer-3-MultiHeadSelfAttention-Norm/add/y", "shape": [], "dtype": "float32"}, {"name": "Transformer-3-MultiHeadSelfAttention-Norm/Const_3", "shape": [], "dtype": "float32"}, {"name": "Transformer-3-MultiHeadSelfAttention-Norm/Const_2", "shape": [], "dtype": "float32"}, {"name": "Transformer-3-MultiHeadSelfAttention-Norm/beta", "shape": [256], "dtype": "float32"}, {"name": "Transformer-3-FeedForward/dense_23/Reshape_2/shape/2", "shape": [], "dtype": "int32"}, {"name": "Transformer-3-FeedForward/dense_23/Reshape_3", "shape": [1, 1, 512], "dtype": "float32"}, {"name": "ConstantFolding/Transformer-3-FeedForward/dense_23/truediv_recip", "shape": [], "dtype": "float32"}, {"name": "Transformer-3-FeedForward/dense_24/Reshape_2/shape/2", "shape": [], "dtype": "int32"}, {"name": "Transformer-3-FeedForward/dense_24/Reshape_3", "shape": [1, 1, 256], "dtype": "float32"}, {"name": "keras_learning_phase/input", "shape": [], "dtype": "bool"}, {"name": "Transformer-3-FeedForward-Norm/Mean/reduction_indices", "shape": [], "dtype": "int32"}, {"name": "Transformer-3-FeedForward-Norm/Mean_1/reduction_indices", "shape": [], "dtype": "int32"}, {"name": "Transformer-3-FeedForward-Norm/add/y", "shape": [], "dtype": "float32"}, {"name": "Transformer-3-FeedForward-Norm/Const_3", "shape": [], "dtype": "float32"}, {"name": "Transformer-3-FeedForward-Norm/Const_2", "shape": [], "dtype": "float32"}, {"name": "Transformer-3-FeedForward-Norm/beta", "shape": [256], "dtype": "float32"}, {"name": "MLM-Dense/Reshape_2/shape/2", "shape": [], "dtype": "int32"}, {"name": "MLM-Dense/Reshape_3", "shape": [1, 1, 256], "dtype": "float32"}, {"name": "ConstantFolding/MLM-Dense/truediv_recip", "shape": [], "dtype": "float32"}, {"name": "MLM-Norm/Mean/reduction_indices", "shape": [], "dtype": "int32"}, {"name": "MLM-Norm/beta", "shape": [256], "dtype": "float32"}, {"name": "Embedding-Token_1/Reshape_2/shape/2", "shape": [], "dtype": "int32"}, {"name": "MLM-Bias/Reshape", "shape": [1, 1, 99], "dtype": "float32"}, {"name": "MLM-Activation/Max/reduction_indices", "shape": [], "dtype": "int32"}, {"name": "MLM-Activation/Sum/reduction_indices", "shape": [], "dtype": "int32"}, {"name": "Embedding-Dropout/cond/dropout/truediv", "shape": [], "dtype": "float32"}, {"name": "Embedding-Dropout/cond/dropout/random_uniform/sub", "shape": [], "dtype": "float32"}, {"name": "Embedding-Dropout/cond/dropout/random_uniform/min", "shape": [], "dtype": "float32"}, {"name": "Embedding-Dropout/cond/dropout/rate", "shape": [], "dtype": "float32"}, {"name": "Transformer-0-MultiHeadSelfAttention-Dropout/cond/dropout/truediv", "shape": [], "dtype": "float32"}, {"name": "Transformer-0-MultiHeadSelfAttention-Dropout/cond/dropout/rate", "shape": [], "dtype": "float32"}, {"name": "Transformer-0-FeedForward-Dropout/cond/dropout/truediv", "shape": [], "dtype": "float32"}, {"name": "Transformer-0-FeedForward-Dropout/cond/dropout/rate", "shape": [], "dtype": "float32"}, {"name": "Transformer-1-MultiHeadSelfAttention-Dropout/cond/dropout/truediv", "shape": [], "dtype": "float32"}, {"name": "Transformer-1-MultiHeadSelfAttention-Dropout/cond/dropout/rate", "shape": [], "dtype": "float32"}, {"name": "Transformer-1-FeedForward-Dropout/cond/dropout/truediv", "shape": [], "dtype": "float32"}, {"name": "Transformer-1-FeedForward-Dropout/cond/dropout/rate", "shape": [], "dtype": "float32"}, {"name": "Transformer-2-MultiHeadSelfAttention-Dropout/cond/dropout/truediv", "shape": [], "dtype": "float32"}, {"name": "Transformer-2-MultiHeadSelfAttention-Dropout/cond/dropout/rate", "shape": [], "dtype": "float32"}, {"name": "Transformer-2-FeedForward-Dropout/cond/dropout/truediv", "shape": [], "dtype": "float32"}, {"name": "Transformer-2-FeedForward-Dropout/cond/dropout/rate", "shape": [], "dtype": "float32"}, {"name": "Transformer-3-MultiHeadSelfAttention-Dropout/cond/dropout/truediv", "shape": [], "dtype": "float32"}, {"name": "Transformer-3-MultiHeadSelfAttention-Dropout/cond/dropout/rate", "shape": [], "dtype": "float32"}, {"name": "Transformer-3-FeedForward-Dropout/cond/dropout/truediv", "shape": [], "dtype": "float32"}, {"name": "Transformer-3-FeedForward-Dropout/cond/dropout/rate", "shape": [], "dtype": "float32"}]}]}